{"format": "graph-model", "generatedBy": "2.3.1", "convertedBy": "TensorFlow.js Converter v2.4.0", "userDefinedMetadata": {"signature": {"inputs": {"inputs:0": {"name": "inputs:0", "dtype": "DT_FLOAT", "tensorShape": {"dim": [{"size": "-1"}, {"size": "-1"}, {"size": "-1"}, {"size": "3"}]}}}, "outputs": {"Identity:0": {"name": "Identity:0", "dtype": "DT_FLOAT", "tensorShape": {"dim": [{"size": "-1"}, {"size": "56"}]}}}}}, "modelTopology": {"node": [{"name": "StatefulPartitionedCall/SmileFaceModel/tf_op_layer_strided_slice_143/strided_slice_143/begin", "op": "Const", "attr": {"value": {"tensor": {"dtype": "DT_INT32", "tensorShape": {"dim": [{"size": "2"}]}}}, "dtype": {"type": "DT_INT32"}}}, {"name": "StatefulPartitionedCall/SmileFaceModel/tf_op_layer_strided_slice_143/strided_slice_143/end", "op": "Const", "attr": {"value": {"tensor": {"dtype": "DT_INT32", "tensorShape": {"dim": [{"size": "2"}]}}}, "dtype": {"type": "DT_INT32"}}}, {"name": "StatefulPartitionedCall/SmileFaceModel/tf_op_layer_strided_slice_143/strided_slice_143/strides", "op": "Const", "attr": {"dtype": {"type": "DT_INT32"}, "value": {"tensor": {"dtype": "DT_INT32", "tensorShape": {"dim": [{"size": "2"}]}}}}}, {"name": "StatefulPartitionedCall/SmileFaceModel/tf_op_layer_strided_slice_144/strided_slice_144/begin", "op": "Const", "attr": {"dtype": {"type": "DT_INT32"}, "value": {"tensor": {"dtype": "DT_INT32", "tensorShape": {"dim": [{"size": "2"}]}}}}}, {"name": "StatefulPartitionedCall/SmileFaceModel/tf_op_layer_strided_slice_144/strided_slice_144/end", "op": "Const", "attr": {"value": {"tensor": {"dtype": "DT_INT32", "tensorShape": {"dim": [{"size": "2"}]}}}, "dtype": {"type": "DT_INT32"}}}, {"name": "StatefulPartitionedCall/SmileFaceModel/tf_op_layer_strided_slice_144/strided_slice_144/strides", "op": "Const", "attr": {"dtype": {"type": "DT_INT32"}, "value": {"tensor": {"dtype": "DT_INT32", "tensorShape": {"dim": [{"size": "2"}]}}}}}, {"name": "StatefulPartitionedCall/SmileFaceModel/tf_op_layer_NonMaxSuppressionV5/NonMaxSuppressionV5/max_output_size", "op": "Const", "attr": {"dtype": {"type": "DT_INT32"}, "value": {"tensor": {"dtype": "DT_INT32", "tensorShape": {}}}}}, {"name": "StatefulPartitionedCall/SmileFaceModel/tf_op_layer_NonMaxSuppressionV5/NonMaxSuppressionV5/iou_threshold", "op": "Const", "attr": {"dtype": {"type": "DT_FLOAT"}, "value": {"tensor": {"dtype": "DT_FLOAT", "tensorShape": {}}}}}, {"name": "StatefulPartitionedCall/SmileFaceModel/tf_op_layer_NonMaxSuppressionV5/NonMaxSuppressionV5/score_threshold", "op": "Const", "attr": {"dtype": {"type": "DT_FLOAT"}, "value": {"tensor": {"dtype": "DT_FLOAT", "tensorShape": {}}}}}, {"name": "StatefulPartitionedCall/SmileFaceModel/tf_op_layer_NonMaxSuppressionV5/NonMaxSuppressionV5/soft_nms_sigma", "op": "Const", "attr": {"dtype": {"type": "DT_FLOAT"}, "value": {"tensor": {"dtype": "DT_FLOAT", "tensorShape": {}}}}}, {"name": "StatefulPartitionedCall/SmileFaceModel/tf_op_layer_strided_slice_145/strided_slice_145/begin", "op": "Const", "attr": {"value": {"tensor": {"dtype": "DT_INT32", "tensorShape": {"dim": [{"size": "2"}]}}}, "dtype": {"type": "DT_INT32"}}}, {"name": "StatefulPartitionedCall/SmileFaceModel/tf_op_layer_strided_slice_145/strided_slice_145/end", "op": "Const", "attr": {"dtype": {"type": "DT_INT32"}, "value": {"tensor": {"dtype": "DT_INT32", "tensorShape": {"dim": [{"size": "2"}]}}}}}, {"name": "StatefulPartitionedCall/SmileFaceModel/tf_op_layer_strided_slice_145/strided_slice_145/strides", "op": "Const", "attr": {"dtype": {"type": "DT_INT32"}, "value": {"tensor": {"dtype": "DT_INT32", "tensorShape": {"dim": [{"size": "2"}]}}}}}, {"name": "ConstantFolding/StatefulPartitionedCall/SmileFaceModel/tf_op_layer_RealDiv_14/RealDiv_14_recip", "op": "Const", "attr": {"dtype": {"type": "DT_FLOAT"}, "value": {"tensor": {"dtype": "DT_FLOAT", "tensorShape": {}}}}}, {"name": "StatefulPartitionedCall/SmileFaceModel/tf_op_layer_strided_slice_64/strided_slice_64/begin", "op": "Const", "attr": {"value": {"tensor": {"dtype": "DT_INT32", "tensorShape": {"dim": [{"size": "2"}]}}}, "dtype": {"type": "DT_INT32"}}}, {"name": "StatefulPartitionedCall/SmileFaceModel/tf_op_layer_strided_slice_64/strided_slice_64/end", "op": "Const", "attr": {"value": {"tensor": {"dtype": "DT_INT32", "tensorShape": {"dim": [{"size": "2"}]}}}, "dtype": {"type": "DT_INT32"}}}, {"name": "StatefulPartitionedCall/SmileFaceModel/tf_op_layer_strided_slice_64/strided_slice_64/strides", "op": "Const", "attr": {"value": {"tensor": {"dtype": "DT_INT32", "tensorShape": {"dim": [{"size": "2"}]}}}, "dtype": {"type": "DT_INT32"}}}, {"name": "StatefulPartitionedCall/SmileFaceModel/tf_op_layer_strided_slice_65/strided_slice_65/begin", "op": "Const", "attr": {"dtype": {"type": "DT_INT32"}, "value": {"tensor": {"dtype": "DT_INT32", "tensorShape": {"dim": [{"size": "2"}]}}}}}, {"name": "StatefulPartitionedCall/SmileFaceModel/tf_op_layer_strided_slice_65/strided_slice_65/end", "op": "Const", "attr": {"value": {"tensor": {"dtype": "DT_INT32", "tensorShape": {"dim": [{"size": "2"}]}}}, "dtype": {"type": "DT_INT32"}}}, {"name": "StatefulPartitionedCall/SmileFaceModel/tf_op_layer_strided_slice_65/strided_slice_65/strides", "op": "Const", "attr": {"dtype": {"type": "DT_INT32"}, "value": {"tensor": {"dtype": "DT_INT32", "tensorShape": {"dim": [{"size": "2"}]}}}}}, {"name": "StatefulPartitionedCall/SmileFaceModel/tf_op_layer_Mul_15/Mul_15/y", "op": "Const", "attr": {"value": {"tensor": {"dtype": "DT_FLOAT", "tensorShape": {}}}, "dtype": {"type": "DT_FLOAT"}}}, {"name": "StatefulPartitionedCall/SmileFaceModel/tf_op_layer_strided_slice_66/strided_slice_66/begin", "op": "Const", "attr": {"value": {"tensor": {"dtype": "DT_INT32", "tensorShape": {"dim": [{"size": "2"}]}}}, "dtype": {"type": "DT_INT32"}}}, {"name": "StatefulPartitionedCall/SmileFaceModel/tf_op_layer_strided_slice_66/strided_slice_66/end", "op": "Const", "attr": {"value": {"tensor": {"dtype": "DT_INT32", "tensorShape": {"dim": [{"size": "2"}]}}}, "dtype": {"type": "DT_INT32"}}}, {"name": "StatefulPartitionedCall/SmileFaceModel/tf_op_layer_strided_slice_66/strided_slice_66/strides", "op": "Const", "attr": {"dtype": {"type": "DT_INT32"}, "value": {"tensor": {"dtype": "DT_INT32", "tensorShape": {"dim": [{"size": "2"}]}}}}}, {"name": "StatefulPartitionedCall/SmileFaceModel/tf_op_layer_strided_slice_67/strided_slice_67/begin", "op": "Const", "attr": {"value": {"tensor": {"dtype": "DT_INT32", "tensorShape": {"dim": [{"size": "2"}]}}}, "dtype": {"type": "DT_INT32"}}}, {"name": "StatefulPartitionedCall/SmileFaceModel/tf_op_layer_strided_slice_67/strided_slice_67/end", "op": "Const", "attr": {"dtype": {"type": "DT_INT32"}, "value": {"tensor": {"dtype": "DT_INT32", "tensorShape": {"dim": [{"size": "2"}]}}}}}, {"name": "StatefulPartitionedCall/SmileFaceModel/tf_op_layer_strided_slice_67/strided_slice_67/strides", "op": "Const", "attr": {"dtype": {"type": "DT_INT32"}, "value": {"tensor": {"dtype": "DT_INT32", "tensorShape": {"dim": [{"size": "2"}]}}}}}, {"name": "StatefulPartitionedCall/SmileFaceModel/tf_op_layer_strided_slice_63/strided_slice_63/begin", "op": "Const", "attr": {"value": {"tensor": {"dtype": "DT_INT32", "tensorShape": {"dim": [{"size": "2"}]}}}, "dtype": {"type": "DT_INT32"}}}, {"name": "StatefulPartitionedCall/SmileFaceModel/tf_op_layer_strided_slice_63/strided_slice_63/end", "op": "Const", "attr": {"value": {"tensor": {"dtype": "DT_INT32", "tensorShape": {"dim": [{"size": "2"}]}}}, "dtype": {"type": "DT_INT32"}}}, {"name": "StatefulPartitionedCall/SmileFaceModel/tf_op_layer_strided_slice_63/strided_slice_63/strides", "op": "Const", "attr": {"dtype": {"type": "DT_INT32"}, "value": {"tensor": {"dtype": "DT_INT32", "tensorShape": {"dim": [{"size": "2"}]}}}}}, {"name": "StatefulPartitionedCall/SmileFaceModel/tf_op_layer_strided_slice_68/strided_slice_68/begin", "op": "Const", "attr": {"value": {"tensor": {"dtype": "DT_INT32", "tensorShape": {"dim": [{"size": "2"}]}}}, "dtype": {"type": "DT_INT32"}}}, {"name": "StatefulPartitionedCall/SmileFaceModel/tf_op_layer_strided_slice_68/strided_slice_68/end", "op": "Const", "attr": {"value": {"tensor": {"dtype": "DT_INT32", "tensorShape": {"dim": [{"size": "2"}]}}}, "dtype": {"type": "DT_INT32"}}}, {"name": "StatefulPartitionedCall/SmileFaceModel/tf_op_layer_strided_slice_68/strided_slice_68/strides", "op": "Const", "attr": {"value": {"tensor": {"dtype": "DT_INT32", "tensorShape": {"dim": [{"size": "2"}]}}}, "dtype": {"type": "DT_INT32"}}}, {"name": "StatefulPartitionedCall/SmileFaceModel/tf_op_layer_Mul_17/Mul_17/y", "op": "Const", "attr": {"value": {"tensor": {"dtype": "DT_FLOAT", "tensorShape": {}}}, "dtype": {"type": "DT_FLOAT"}}}, {"name": "ConstantFolding/StatefulPartitionedCall/SmileFaceModel/tf_op_layer_RealDiv_15/RealDiv_15_recip", "op": "Const", "attr": {"dtype": {"type": "DT_FLOAT"}, "value": {"tensor": {"dtype": "DT_FLOAT", "tensorShape": {}}}}}, {"name": "StatefulPartitionedCall/SmileFaceModel/tf_op_layer_strided_slice_70/strided_slice_70/begin", "op": "Const", "attr": {"value": {"tensor": {"dtype": "DT_INT32", "tensorShape": {"dim": [{"size": "2"}]}}}, "dtype": {"type": "DT_INT32"}}}, {"name": "StatefulPartitionedCall/SmileFaceModel/tf_op_layer_strided_slice_70/strided_slice_70/end", "op": "Const", "attr": {"value": {"tensor": {"dtype": "DT_INT32", "tensorShape": {"dim": [{"size": "2"}]}}}, "dtype": {"type": "DT_INT32"}}}, {"name": "StatefulPartitionedCall/SmileFaceModel/tf_op_layer_strided_slice_70/strided_slice_70/strides", "op": "Const", "attr": {"value": {"tensor": {"dtype": "DT_INT32", "tensorShape": {"dim": [{"size": "2"}]}}}, "dtype": {"type": "DT_INT32"}}}, {"name": "StatefulPartitionedCall/SmileFaceModel/tf_op_layer_strided_slice_71/strided_slice_71/begin", "op": "Const", "attr": {"value": {"tensor": {"dtype": "DT_INT32", "tensorShape": {"dim": [{"size": "2"}]}}}, "dtype": {"type": "DT_INT32"}}}, {"name": "StatefulPartitionedCall/SmileFaceModel/tf_op_layer_strided_slice_71/strided_slice_71/end", "op": "Const", "attr": {"dtype": {"type": "DT_INT32"}, "value": {"tensor": {"dtype": "DT_INT32", "tensorShape": {"dim": [{"size": "2"}]}}}}}, {"name": "StatefulPartitionedCall/SmileFaceModel/tf_op_layer_strided_slice_71/strided_slice_71/strides", "op": "Const", "attr": {"dtype": {"type": "DT_INT32"}, "value": {"tensor": {"dtype": "DT_INT32", "tensorShape": {"dim": [{"size": "2"}]}}}}}, {"name": "StatefulPartitionedCall/SmileFaceModel/tf_op_layer_Mul_19/Mul_19/y", "op": "Const", "attr": {"value": {"tensor": {"dtype": "DT_FLOAT", "tensorShape": {}}}, "dtype": {"type": "DT_FLOAT"}}}, {"name": "StatefulPartitionedCall/SmileFaceModel/tf_op_layer_strided_slice_72/strided_slice_72/begin", "op": "Const", "attr": {"dtype": {"type": "DT_INT32"}, "value": {"tensor": {"dtype": "DT_INT32", "tensorShape": {"dim": [{"size": "2"}]}}}}}, {"name": "StatefulPartitionedCall/SmileFaceModel/tf_op_layer_strided_slice_72/strided_slice_72/end", "op": "Const", "attr": {"dtype": {"type": "DT_INT32"}, "value": {"tensor": {"dtype": "DT_INT32", "tensorShape": {"dim": [{"size": "2"}]}}}}}, {"name": "StatefulPartitionedCall/SmileFaceModel/tf_op_layer_strided_slice_72/strided_slice_72/strides", "op": "Const", "attr": {"value": {"tensor": {"dtype": "DT_INT32", "tensorShape": {"dim": [{"size": "2"}]}}}, "dtype": {"type": "DT_INT32"}}}, {"name": "StatefulPartitionedCall/SmileFaceModel/tf_op_layer_strided_slice_73/strided_slice_73/begin", "op": "Const", "attr": {"value": {"tensor": {"dtype": "DT_INT32", "tensorShape": {"dim": [{"size": "2"}]}}}, "dtype": {"type": "DT_INT32"}}}, {"name": "StatefulPartitionedCall/SmileFaceModel/tf_op_layer_strided_slice_73/strided_slice_73/end", "op": "Const", "attr": {"dtype": {"type": "DT_INT32"}, "value": {"tensor": {"dtype": "DT_INT32", "tensorShape": {"dim": [{"size": "2"}]}}}}}, {"name": "StatefulPartitionedCall/SmileFaceModel/tf_op_layer_strided_slice_73/strided_slice_73/strides", "op": "Const", "attr": {"value": {"tensor": {"dtype": "DT_INT32", "tensorShape": {"dim": [{"size": "2"}]}}}, "dtype": {"type": "DT_INT32"}}}, {"name": "StatefulPartitionedCall/SmileFaceModel/tf_op_layer_strided_slice_74/strided_slice_74/begin", "op": "Const", "attr": {"value": {"tensor": {"dtype": "DT_INT32", "tensorShape": {"dim": [{"size": "2"}]}}}, "dtype": {"type": "DT_INT32"}}}, {"name": "StatefulPartitionedCall/SmileFaceModel/tf_op_layer_strided_slice_74/strided_slice_74/end", "op": "Const", "attr": {"dtype": {"type": "DT_INT32"}, "value": {"tensor": {"dtype": "DT_INT32", "tensorShape": {"dim": [{"size": "2"}]}}}}}, {"name": "StatefulPartitionedCall/SmileFaceModel/tf_op_layer_strided_slice_74/strided_slice_74/strides", "op": "Const", "attr": {"value": {"tensor": {"dtype": "DT_INT32", "tensorShape": {"dim": [{"size": "2"}]}}}, "dtype": {"type": "DT_INT32"}}}, {"name": "StatefulPartitionedCall/SmileFaceModel/tf_op_layer_Mul_21/Mul_21/y", "op": "Const", "attr": {"dtype": {"type": "DT_FLOAT"}, "value": {"tensor": {"dtype": "DT_FLOAT", "tensorShape": {}}}}}, {"name": "StatefulPartitionedCall/SmileFaceModel/tf_op_layer_strided_slice_75/strided_slice_75/begin", "op": "Const", "attr": {"value": {"tensor": {"dtype": "DT_INT32", "tensorShape": {"dim": [{"size": "2"}]}}}, "dtype": {"type": "DT_INT32"}}}, {"name": "StatefulPartitionedCall/SmileFaceModel/tf_op_layer_strided_slice_75/strided_slice_75/end", "op": "Const", "attr": {"value": {"tensor": {"dtype": "DT_INT32", "tensorShape": {"dim": [{"size": "2"}]}}}, "dtype": {"type": "DT_INT32"}}}, {"name": "StatefulPartitionedCall/SmileFaceModel/tf_op_layer_strided_slice_75/strided_slice_75/strides", "op": "Const", "attr": {"value": {"tensor": {"dtype": "DT_INT32", "tensorShape": {"dim": [{"size": "2"}]}}}, "dtype": {"type": "DT_INT32"}}}, {"name": "StatefulPartitionedCall/SmileFaceModel/tf_op_layer_strided_slice_76/strided_slice_76/begin", "op": "Const", "attr": {"dtype": {"type": "DT_INT32"}, "value": {"tensor": {"dtype": "DT_INT32", "tensorShape": {"dim": [{"size": "2"}]}}}}}, {"name": "StatefulPartitionedCall/SmileFaceModel/tf_op_layer_strided_slice_76/strided_slice_76/end", "op": "Const", "attr": {"value": {"tensor": {"dtype": "DT_INT32", "tensorShape": {"dim": [{"size": "2"}]}}}, "dtype": {"type": "DT_INT32"}}}, {"name": "StatefulPartitionedCall/SmileFaceModel/tf_op_layer_strided_slice_76/strided_slice_76/strides", "op": "Const", "attr": {"value": {"tensor": {"dtype": "DT_INT32", "tensorShape": {"dim": [{"size": "2"}]}}}, "dtype": {"type": "DT_INT32"}}}, {"name": "StatefulPartitionedCall/SmileFaceModel/tf_op_layer_strided_slice_77/strided_slice_77/begin", "op": "Const", "attr": {"dtype": {"type": "DT_INT32"}, "value": {"tensor": {"dtype": "DT_INT32", "tensorShape": {"dim": [{"size": "2"}]}}}}}, {"name": "StatefulPartitionedCall/SmileFaceModel/tf_op_layer_strided_slice_77/strided_slice_77/end", "op": "Const", "attr": {"value": {"tensor": {"dtype": "DT_INT32", "tensorShape": {"dim": [{"size": "2"}]}}}, "dtype": {"type": "DT_INT32"}}}, {"name": "StatefulPartitionedCall/SmileFaceModel/tf_op_layer_strided_slice_77/strided_slice_77/strides", "op": "Const", "attr": {"value": {"tensor": {"dtype": "DT_INT32", "tensorShape": {"dim": [{"size": "2"}]}}}, "dtype": {"type": "DT_INT32"}}}, {"name": "StatefulPartitionedCall/SmileFaceModel/tf_op_layer_Mul_23/Mul_23/y", "op": "Const", "attr": {"dtype": {"type": "DT_FLOAT"}, "value": {"tensor": {"dtype": "DT_FLOAT", "tensorShape": {}}}}}, {"name": "StatefulPartitionedCall/SmileFaceModel/tf_op_layer_strided_slice_78/strided_slice_78/begin", "op": "Const", "attr": {"dtype": {"type": "DT_INT32"}, "value": {"tensor": {"dtype": "DT_INT32", "tensorShape": {"dim": [{"size": "2"}]}}}}}, {"name": "StatefulPartitionedCall/SmileFaceModel/tf_op_layer_strided_slice_78/strided_slice_78/end", "op": "Const", "attr": {"dtype": {"type": "DT_INT32"}, "value": {"tensor": {"dtype": "DT_INT32", "tensorShape": {"dim": [{"size": "2"}]}}}}}, {"name": "StatefulPartitionedCall/SmileFaceModel/tf_op_layer_strided_slice_78/strided_slice_78/strides", "op": "Const", "attr": {"dtype": {"type": "DT_INT32"}, "value": {"tensor": {"dtype": "DT_INT32", "tensorShape": {"dim": [{"size": "2"}]}}}}}, {"name": "StatefulPartitionedCall/SmileFaceModel/tf_op_layer_strided_slice_79/strided_slice_79/begin", "op": "Const", "attr": {"dtype": {"type": "DT_INT32"}, "value": {"tensor": {"dtype": "DT_INT32", "tensorShape": {"dim": [{"size": "2"}]}}}}}, {"name": "StatefulPartitionedCall/SmileFaceModel/tf_op_layer_strided_slice_79/strided_slice_79/end", "op": "Const", "attr": {"value": {"tensor": {"dtype": "DT_INT32", "tensorShape": {"dim": [{"size": "2"}]}}}, "dtype": {"type": "DT_INT32"}}}, {"name": "StatefulPartitionedCall/SmileFaceModel/tf_op_layer_strided_slice_79/strided_slice_79/strides", "op": "Const", "attr": {"dtype": {"type": "DT_INT32"}, "value": {"tensor": {"dtype": "DT_INT32", "tensorShape": {"dim": [{"size": "2"}]}}}}}, {"name": "StatefulPartitionedCall/SmileFaceModel/tf_op_layer_strided_slice_80/strided_slice_80/begin", "op": "Const", "attr": {"dtype": {"type": "DT_INT32"}, "value": {"tensor": {"dtype": "DT_INT32", "tensorShape": {"dim": [{"size": "2"}]}}}}}, {"name": "StatefulPartitionedCall/SmileFaceModel/tf_op_layer_strided_slice_80/strided_slice_80/end", "op": "Const", "attr": {"value": {"tensor": {"dtype": "DT_INT32", "tensorShape": {"dim": [{"size": "2"}]}}}, "dtype": {"type": "DT_INT32"}}}, {"name": "StatefulPartitionedCall/SmileFaceModel/tf_op_layer_strided_slice_80/strided_slice_80/strides", "op": "Const", "attr": {"value": {"tensor": {"dtype": "DT_INT32", "tensorShape": {"dim": [{"size": "2"}]}}}, "dtype": {"type": "DT_INT32"}}}, {"name": "StatefulPartitionedCall/SmileFaceModel/tf_op_layer_Mul_25/Mul_25/y", "op": "Const", "attr": {"dtype": {"type": "DT_FLOAT"}, "value": {"tensor": {"dtype": "DT_FLOAT", "tensorShape": {}}}}}, {"name": "StatefulPartitionedCall/SmileFaceModel/tf_op_layer_strided_slice_81/strided_slice_81/begin", "op": "Const", "attr": {"value": {"tensor": {"dtype": "DT_INT32", "tensorShape": {"dim": [{"size": "2"}]}}}, "dtype": {"type": "DT_INT32"}}}, {"name": "StatefulPartitionedCall/SmileFaceModel/tf_op_layer_strided_slice_81/strided_slice_81/end", "op": "Const", "attr": {"value": {"tensor": {"dtype": "DT_INT32", "tensorShape": {"dim": [{"size": "2"}]}}}, "dtype": {"type": "DT_INT32"}}}, {"name": "StatefulPartitionedCall/SmileFaceModel/tf_op_layer_strided_slice_81/strided_slice_81/strides", "op": "Const", "attr": {"value": {"tensor": {"dtype": "DT_INT32", "tensorShape": {"dim": [{"size": "2"}]}}}, "dtype": {"type": "DT_INT32"}}}, {"name": "StatefulPartitionedCall/SmileFaceModel/tf_op_layer_strided_slice_82/strided_slice_82/begin", "op": "Const", "attr": {"dtype": {"type": "DT_INT32"}, "value": {"tensor": {"dtype": "DT_INT32", "tensorShape": {"dim": [{"size": "2"}]}}}}}, {"name": "StatefulPartitionedCall/SmileFaceModel/tf_op_layer_strided_slice_82/strided_slice_82/end", "op": "Const", "attr": {"dtype": {"type": "DT_INT32"}, "value": {"tensor": {"dtype": "DT_INT32", "tensorShape": {"dim": [{"size": "2"}]}}}}}, {"name": "StatefulPartitionedCall/SmileFaceModel/tf_op_layer_strided_slice_82/strided_slice_82/strides", "op": "Const", "attr": {"value": {"tensor": {"dtype": "DT_INT32", "tensorShape": {"dim": [{"size": "2"}]}}}, "dtype": {"type": "DT_INT32"}}}, {"name": "StatefulPartitionedCall/SmileFaceModel/tf_op_layer_strided_slice_83/strided_slice_83/begin", "op": "Const", "attr": {"value": {"tensor": {"dtype": "DT_INT32", "tensorShape": {"dim": [{"size": "2"}]}}}, "dtype": {"type": "DT_INT32"}}}, {"name": "StatefulPartitionedCall/SmileFaceModel/tf_op_layer_strided_slice_83/strided_slice_83/end", "op": "Const", "attr": {"dtype": {"type": "DT_INT32"}, "value": {"tensor": {"dtype": "DT_INT32", "tensorShape": {"dim": [{"size": "2"}]}}}}}, {"name": "StatefulPartitionedCall/SmileFaceModel/tf_op_layer_strided_slice_83/strided_slice_83/strides", "op": "Const", "attr": {"dtype": {"type": "DT_INT32"}, "value": {"tensor": {"dtype": "DT_INT32", "tensorShape": {"dim": [{"size": "2"}]}}}}}, {"name": "StatefulPartitionedCall/SmileFaceModel/tf_op_layer_Mul_27/Mul_27/y", "op": "Const", "attr": {"dtype": {"type": "DT_FLOAT"}, "value": {"tensor": {"dtype": "DT_FLOAT", "tensorShape": {}}}}}, {"name": "StatefulPartitionedCall/SmileFaceModel/tf_op_layer_strided_slice_84/strided_slice_84/begin", "op": "Const", "attr": {"dtype": {"type": "DT_INT32"}, "value": {"tensor": {"dtype": "DT_INT32", "tensorShape": {"dim": [{"size": "2"}]}}}}}, {"name": "StatefulPartitionedCall/SmileFaceModel/tf_op_layer_strided_slice_84/strided_slice_84/end", "op": "Const", "attr": {"value": {"tensor": {"dtype": "DT_INT32", "tensorShape": {"dim": [{"size": "2"}]}}}, "dtype": {"type": "DT_INT32"}}}, {"name": "StatefulPartitionedCall/SmileFaceModel/tf_op_layer_strided_slice_84/strided_slice_84/strides", "op": "Const", "attr": {"value": {"tensor": {"dtype": "DT_INT32", "tensorShape": {"dim": [{"size": "2"}]}}}, "dtype": {"type": "DT_INT32"}}}, {"name": "StatefulPartitionedCall/SmileFaceModel/tf_op_layer_strided_slice_85/strided_slice_85/begin", "op": "Const", "attr": {"dtype": {"type": "DT_INT32"}, "value": {"tensor": {"dtype": "DT_INT32", "tensorShape": {"dim": [{"size": "2"}]}}}}}, {"name": "StatefulPartitionedCall/SmileFaceModel/tf_op_layer_strided_slice_85/strided_slice_85/end", "op": "Const", "attr": {"value": {"tensor": {"dtype": "DT_INT32", "tensorShape": {"dim": [{"size": "2"}]}}}, "dtype": {"type": "DT_INT32"}}}, {"name": "StatefulPartitionedCall/SmileFaceModel/tf_op_layer_strided_slice_85/strided_slice_85/strides", "op": "Const", "attr": {"value": {"tensor": {"dtype": "DT_INT32", "tensorShape": {"dim": [{"size": "2"}]}}}, "dtype": {"type": "DT_INT32"}}}, {"name": "StatefulPartitionedCall/SmileFaceModel/tf_op_layer_strided_slice_86/strided_slice_86/begin", "op": "Const", "attr": {"value": {"tensor": {"dtype": "DT_INT32", "tensorShape": {"dim": [{"size": "2"}]}}}, "dtype": {"type": "DT_INT32"}}}, {"name": "StatefulPartitionedCall/SmileFaceModel/tf_op_layer_strided_slice_86/strided_slice_86/end", "op": "Const", "attr": {"value": {"tensor": {"dtype": "DT_INT32", "tensorShape": {"dim": [{"size": "2"}]}}}, "dtype": {"type": "DT_INT32"}}}, {"name": "StatefulPartitionedCall/SmileFaceModel/tf_op_layer_strided_slice_86/strided_slice_86/strides", "op": "Const", "attr": {"value": {"tensor": {"dtype": "DT_INT32", "tensorShape": {"dim": [{"size": "2"}]}}}, "dtype": {"type": "DT_INT32"}}}, {"name": "StatefulPartitionedCall/SmileFaceModel/tf_op_layer_Mul_29/Mul_29/y", "op": "Const", "attr": {"dtype": {"type": "DT_FLOAT"}, "value": {"tensor": {"dtype": "DT_FLOAT", "tensorShape": {}}}}}, {"name": "StatefulPartitionedCall/SmileFaceModel/tf_op_layer_strided_slice_87/strided_slice_87/begin", "op": "Const", "attr": {"value": {"tensor": {"dtype": "DT_INT32", "tensorShape": {"dim": [{"size": "2"}]}}}, "dtype": {"type": "DT_INT32"}}}, {"name": "StatefulPartitionedCall/SmileFaceModel/tf_op_layer_strided_slice_87/strided_slice_87/end", "op": "Const", "attr": {"value": {"tensor": {"dtype": "DT_INT32", "tensorShape": {"dim": [{"size": "2"}]}}}, "dtype": {"type": "DT_INT32"}}}, {"name": "StatefulPartitionedCall/SmileFaceModel/tf_op_layer_strided_slice_87/strided_slice_87/strides", "op": "Const", "attr": {"dtype": {"type": "DT_INT32"}, "value": {"tensor": {"dtype": "DT_INT32", "tensorShape": {"dim": [{"size": "2"}]}}}}}, {"name": "StatefulPartitionedCall/SmileFaceModel/tf_op_layer_strided_slice_88/strided_slice_88/begin", "op": "Const", "attr": {"dtype": {"type": "DT_INT32"}, "value": {"tensor": {"dtype": "DT_INT32", "tensorShape": {"dim": [{"size": "2"}]}}}}}, {"name": "StatefulPartitionedCall/SmileFaceModel/tf_op_layer_strided_slice_88/strided_slice_88/end", "op": "Const", "attr": {"dtype": {"type": "DT_INT32"}, "value": {"tensor": {"dtype": "DT_INT32", "tensorShape": {"dim": [{"size": "2"}]}}}}}, {"name": "StatefulPartitionedCall/SmileFaceModel/tf_op_layer_strided_slice_88/strided_slice_88/strides", "op": "Const", "attr": {"value": {"tensor": {"dtype": "DT_INT32", "tensorShape": {"dim": [{"size": "2"}]}}}, "dtype": {"type": "DT_INT32"}}}, {"name": "StatefulPartitionedCall/SmileFaceModel/tf_op_layer_strided_slice_89/strided_slice_89/begin", "op": "Const", "attr": {"value": {"tensor": {"dtype": "DT_INT32", "tensorShape": {"dim": [{"size": "2"}]}}}, "dtype": {"type": "DT_INT32"}}}, {"name": "StatefulPartitionedCall/SmileFaceModel/tf_op_layer_strided_slice_89/strided_slice_89/end", "op": "Const", "attr": {"value": {"tensor": {"dtype": "DT_INT32", "tensorShape": {"dim": [{"size": "2"}]}}}, "dtype": {"type": "DT_INT32"}}}, {"name": "StatefulPartitionedCall/SmileFaceModel/tf_op_layer_strided_slice_89/strided_slice_89/strides", "op": "Const", "attr": {"dtype": {"type": "DT_INT32"}, "value": {"tensor": {"dtype": "DT_INT32", "tensorShape": {"dim": [{"size": "2"}]}}}}}, {"name": "StatefulPartitionedCall/SmileFaceModel/tf_op_layer_Mul_31/Mul_31/y", "op": "Const", "attr": {"dtype": {"type": "DT_FLOAT"}, "value": {"tensor": {"dtype": "DT_FLOAT", "tensorShape": {}}}}}, {"name": "StatefulPartitionedCall/SmileFaceModel/tf_op_layer_strided_slice_90/strided_slice_90/begin", "op": "Const", "attr": {"value": {"tensor": {"dtype": "DT_INT32", "tensorShape": {"dim": [{"size": "2"}]}}}, "dtype": {"type": "DT_INT32"}}}, {"name": "StatefulPartitionedCall/SmileFaceModel/tf_op_layer_strided_slice_90/strided_slice_90/end", "op": "Const", "attr": {"value": {"tensor": {"dtype": "DT_INT32", "tensorShape": {"dim": [{"size": "2"}]}}}, "dtype": {"type": "DT_INT32"}}}, {"name": "StatefulPartitionedCall/SmileFaceModel/tf_op_layer_strided_slice_90/strided_slice_90/strides", "op": "Const", "attr": {"value": {"tensor": {"dtype": "DT_INT32", "tensorShape": {"dim": [{"size": "2"}]}}}, "dtype": {"type": "DT_INT32"}}}, {"name": "StatefulPartitionedCall/SmileFaceModel/tf_op_layer_strided_slice_91/strided_slice_91/begin", "op": "Const", "attr": {"value": {"tensor": {"dtype": "DT_INT32", "tensorShape": {"dim": [{"size": "2"}]}}}, "dtype": {"type": "DT_INT32"}}}, {"name": "StatefulPartitionedCall/SmileFaceModel/tf_op_layer_strided_slice_91/strided_slice_91/end", "op": "Const", "attr": {"dtype": {"type": "DT_INT32"}, "value": {"tensor": {"dtype": "DT_INT32", "tensorShape": {"dim": [{"size": "2"}]}}}}}, {"name": "StatefulPartitionedCall/SmileFaceModel/tf_op_layer_strided_slice_91/strided_slice_91/strides", "op": "Const", "attr": {"value": {"tensor": {"dtype": "DT_INT32", "tensorShape": {"dim": [{"size": "2"}]}}}, "dtype": {"type": "DT_INT32"}}}, {"name": "StatefulPartitionedCall/SmileFaceModel/tf_op_layer_strided_slice_92/strided_slice_92/begin", "op": "Const", "attr": {"value": {"tensor": {"dtype": "DT_INT32", "tensorShape": {"dim": [{"size": "2"}]}}}, "dtype": {"type": "DT_INT32"}}}, {"name": "StatefulPartitionedCall/SmileFaceModel/tf_op_layer_strided_slice_92/strided_slice_92/end", "op": "Const", "attr": {"value": {"tensor": {"dtype": "DT_INT32", "tensorShape": {"dim": [{"size": "2"}]}}}, "dtype": {"type": "DT_INT32"}}}, {"name": "StatefulPartitionedCall/SmileFaceModel/tf_op_layer_strided_slice_92/strided_slice_92/strides", "op": "Const", "attr": {"value": {"tensor": {"dtype": "DT_INT32", "tensorShape": {"dim": [{"size": "2"}]}}}, "dtype": {"type": "DT_INT32"}}}, {"name": "StatefulPartitionedCall/SmileFaceModel/tf_op_layer_Mul_33/Mul_33/y", "op": "Const", "attr": {"value": {"tensor": {"dtype": "DT_FLOAT", "tensorShape": {}}}, "dtype": {"type": "DT_FLOAT"}}}, {"name": "StatefulPartitionedCall/SmileFaceModel/tf_op_layer_strided_slice_93/strided_slice_93/begin", "op": "Const", "attr": {"value": {"tensor": {"dtype": "DT_INT32", "tensorShape": {"dim": [{"size": "2"}]}}}, "dtype": {"type": "DT_INT32"}}}, {"name": "StatefulPartitionedCall/SmileFaceModel/tf_op_layer_strided_slice_93/strided_slice_93/end", "op": "Const", "attr": {"value": {"tensor": {"dtype": "DT_INT32", "tensorShape": {"dim": [{"size": "2"}]}}}, "dtype": {"type": "DT_INT32"}}}, {"name": "StatefulPartitionedCall/SmileFaceModel/tf_op_layer_strided_slice_93/strided_slice_93/strides", "op": "Const", "attr": {"dtype": {"type": "DT_INT32"}, "value": {"tensor": {"dtype": "DT_INT32", "tensorShape": {"dim": [{"size": "2"}]}}}}}, {"name": "StatefulPartitionedCall/SmileFaceModel/tf_op_layer_strided_slice_94/strided_slice_94/begin", "op": "Const", "attr": {"value": {"tensor": {"dtype": "DT_INT32", "tensorShape": {"dim": [{"size": "2"}]}}}, "dtype": {"type": "DT_INT32"}}}, {"name": "StatefulPartitionedCall/SmileFaceModel/tf_op_layer_strided_slice_94/strided_slice_94/end", "op": "Const", "attr": {"dtype": {"type": "DT_INT32"}, "value": {"tensor": {"dtype": "DT_INT32", "tensorShape": {"dim": [{"size": "2"}]}}}}}, {"name": "StatefulPartitionedCall/SmileFaceModel/tf_op_layer_strided_slice_94/strided_slice_94/strides", "op": "Const", "attr": {"value": {"tensor": {"dtype": "DT_INT32", "tensorShape": {"dim": [{"size": "2"}]}}}, "dtype": {"type": "DT_INT32"}}}, {"name": "StatefulPartitionedCall/SmileFaceModel/tf_op_layer_strided_slice_95/strided_slice_95/begin", "op": "Const", "attr": {"dtype": {"type": "DT_INT32"}, "value": {"tensor": {"dtype": "DT_INT32", "tensorShape": {"dim": [{"size": "2"}]}}}}}, {"name": "StatefulPartitionedCall/SmileFaceModel/tf_op_layer_strided_slice_95/strided_slice_95/end", "op": "Const", "attr": {"dtype": {"type": "DT_INT32"}, "value": {"tensor": {"dtype": "DT_INT32", "tensorShape": {"dim": [{"size": "2"}]}}}}}, {"name": "StatefulPartitionedCall/SmileFaceModel/tf_op_layer_strided_slice_95/strided_slice_95/strides", "op": "Const", "attr": {"dtype": {"type": "DT_INT32"}, "value": {"tensor": {"dtype": "DT_INT32", "tensorShape": {"dim": [{"size": "2"}]}}}}}, {"name": "StatefulPartitionedCall/SmileFaceModel/tf_op_layer_Mul_35/Mul_35/y", "op": "Const", "attr": {"dtype": {"type": "DT_FLOAT"}, "value": {"tensor": {"dtype": "DT_FLOAT", "tensorShape": {}}}}}, {"name": "StatefulPartitionedCall/SmileFaceModel/tf_op_layer_strided_slice_96/strided_slice_96/begin", "op": "Const", "attr": {"dtype": {"type": "DT_INT32"}, "value": {"tensor": {"dtype": "DT_INT32", "tensorShape": {"dim": [{"size": "2"}]}}}}}, {"name": "StatefulPartitionedCall/SmileFaceModel/tf_op_layer_strided_slice_96/strided_slice_96/end", "op": "Const", "attr": {"value": {"tensor": {"dtype": "DT_INT32", "tensorShape": {"dim": [{"size": "2"}]}}}, "dtype": {"type": "DT_INT32"}}}, {"name": "StatefulPartitionedCall/SmileFaceModel/tf_op_layer_strided_slice_96/strided_slice_96/strides", "op": "Const", "attr": {"dtype": {"type": "DT_INT32"}, "value": {"tensor": {"dtype": "DT_INT32", "tensorShape": {"dim": [{"size": "2"}]}}}}}, {"name": "StatefulPartitionedCall/SmileFaceModel/tf_op_layer_strided_slice_97/strided_slice_97/begin", "op": "Const", "attr": {"value": {"tensor": {"dtype": "DT_INT32", "tensorShape": {"dim": [{"size": "2"}]}}}, "dtype": {"type": "DT_INT32"}}}, {"name": "StatefulPartitionedCall/SmileFaceModel/tf_op_layer_strided_slice_97/strided_slice_97/end", "op": "Const", "attr": {"dtype": {"type": "DT_INT32"}, "value": {"tensor": {"dtype": "DT_INT32", "tensorShape": {"dim": [{"size": "2"}]}}}}}, {"name": "StatefulPartitionedCall/SmileFaceModel/tf_op_layer_strided_slice_97/strided_slice_97/strides", "op": "Const", "attr": {"value": {"tensor": {"dtype": "DT_INT32", "tensorShape": {"dim": [{"size": "2"}]}}}, "dtype": {"type": "DT_INT32"}}}, {"name": "StatefulPartitionedCall/SmileFaceModel/tf_op_layer_strided_slice_98/strided_slice_98/begin", "op": "Const", "attr": {"dtype": {"type": "DT_INT32"}, "value": {"tensor": {"dtype": "DT_INT32", "tensorShape": {"dim": [{"size": "2"}]}}}}}, {"name": "StatefulPartitionedCall/SmileFaceModel/tf_op_layer_strided_slice_98/strided_slice_98/end", "op": "Const", "attr": {"value": {"tensor": {"dtype": "DT_INT32", "tensorShape": {"dim": [{"size": "2"}]}}}, "dtype": {"type": "DT_INT32"}}}, {"name": "StatefulPartitionedCall/SmileFaceModel/tf_op_layer_strided_slice_98/strided_slice_98/strides", "op": "Const", "attr": {"value": {"tensor": {"dtype": "DT_INT32", "tensorShape": {"dim": [{"size": "2"}]}}}, "dtype": {"type": "DT_INT32"}}}, {"name": "StatefulPartitionedCall/SmileFaceModel/tf_op_layer_Mul_37/Mul_37/y", "op": "Const", "attr": {"value": {"tensor": {"dtype": "DT_FLOAT", "tensorShape": {}}}, "dtype": {"type": "DT_FLOAT"}}}, {"name": "StatefulPartitionedCall/SmileFaceModel/tf_op_layer_strided_slice_99/strided_slice_99/begin", "op": "Const", "attr": {"dtype": {"type": "DT_INT32"}, "value": {"tensor": {"dtype": "DT_INT32", "tensorShape": {"dim": [{"size": "2"}]}}}}}, {"name": "StatefulPartitionedCall/SmileFaceModel/tf_op_layer_strided_slice_99/strided_slice_99/end", "op": "Const", "attr": {"value": {"tensor": {"dtype": "DT_INT32", "tensorShape": {"dim": [{"size": "2"}]}}}, "dtype": {"type": "DT_INT32"}}}, {"name": "StatefulPartitionedCall/SmileFaceModel/tf_op_layer_strided_slice_99/strided_slice_99/strides", "op": "Const", "attr": {"dtype": {"type": "DT_INT32"}, "value": {"tensor": {"dtype": "DT_INT32", "tensorShape": {"dim": [{"size": "2"}]}}}}}, {"name": "StatefulPartitionedCall/SmileFaceModel/tf_op_layer_strided_slice_100/strided_slice_100/begin", "op": "Const", "attr": {"dtype": {"type": "DT_INT32"}, "value": {"tensor": {"dtype": "DT_INT32", "tensorShape": {"dim": [{"size": "2"}]}}}}}, {"name": "StatefulPartitionedCall/SmileFaceModel/tf_op_layer_strided_slice_100/strided_slice_100/end", "op": "Const", "attr": {"dtype": {"type": "DT_INT32"}, "value": {"tensor": {"dtype": "DT_INT32", "tensorShape": {"dim": [{"size": "2"}]}}}}}, {"name": "StatefulPartitionedCall/SmileFaceModel/tf_op_layer_strided_slice_100/strided_slice_100/strides", "op": "Const", "attr": {"dtype": {"type": "DT_INT32"}, "value": {"tensor": {"dtype": "DT_INT32", "tensorShape": {"dim": [{"size": "2"}]}}}}}, {"name": "StatefulPartitionedCall/SmileFaceModel/tf_op_layer_strided_slice_101/strided_slice_101/begin", "op": "Const", "attr": {"dtype": {"type": "DT_INT32"}, "value": {"tensor": {"dtype": "DT_INT32", "tensorShape": {"dim": [{"size": "2"}]}}}}}, {"name": "StatefulPartitionedCall/SmileFaceModel/tf_op_layer_strided_slice_101/strided_slice_101/end", "op": "Const", "attr": {"dtype": {"type": "DT_INT32"}, "value": {"tensor": {"dtype": "DT_INT32", "tensorShape": {"dim": [{"size": "2"}]}}}}}, {"name": "StatefulPartitionedCall/SmileFaceModel/tf_op_layer_strided_slice_101/strided_slice_101/strides", "op": "Const", "attr": {"dtype": {"type": "DT_INT32"}, "value": {"tensor": {"dtype": "DT_INT32", "tensorShape": {"dim": [{"size": "2"}]}}}}}, {"name": "StatefulPartitionedCall/SmileFaceModel/tf_op_layer_Mul_39/Mul_39/y", "op": "Const", "attr": {"value": {"tensor": {"dtype": "DT_FLOAT", "tensorShape": {}}}, "dtype": {"type": "DT_FLOAT"}}}, {"name": "StatefulPartitionedCall/SmileFaceModel/tf_op_layer_strided_slice_102/strided_slice_102/begin", "op": "Const", "attr": {"value": {"tensor": {"dtype": "DT_INT32", "tensorShape": {"dim": [{"size": "2"}]}}}, "dtype": {"type": "DT_INT32"}}}, {"name": "StatefulPartitionedCall/SmileFaceModel/tf_op_layer_strided_slice_102/strided_slice_102/end", "op": "Const", "attr": {"dtype": {"type": "DT_INT32"}, "value": {"tensor": {"dtype": "DT_INT32", "tensorShape": {"dim": [{"size": "2"}]}}}}}, {"name": "StatefulPartitionedCall/SmileFaceModel/tf_op_layer_strided_slice_102/strided_slice_102/strides", "op": "Const", "attr": {"dtype": {"type": "DT_INT32"}, "value": {"tensor": {"dtype": "DT_INT32", "tensorShape": {"dim": [{"size": "2"}]}}}}}, {"name": "StatefulPartitionedCall/SmileFaceModel/tf_op_layer_strided_slice_103/strided_slice_103/begin", "op": "Const", "attr": {"dtype": {"type": "DT_INT32"}, "value": {"tensor": {"dtype": "DT_INT32", "tensorShape": {"dim": [{"size": "2"}]}}}}}, {"name": "StatefulPartitionedCall/SmileFaceModel/tf_op_layer_strided_slice_103/strided_slice_103/end", "op": "Const", "attr": {"dtype": {"type": "DT_INT32"}, "value": {"tensor": {"dtype": "DT_INT32", "tensorShape": {"dim": [{"size": "2"}]}}}}}, {"name": "StatefulPartitionedCall/SmileFaceModel/tf_op_layer_strided_slice_103/strided_slice_103/strides", "op": "Const", "attr": {"dtype": {"type": "DT_INT32"}, "value": {"tensor": {"dtype": "DT_INT32", "tensorShape": {"dim": [{"size": "2"}]}}}}}, {"name": "StatefulPartitionedCall/SmileFaceModel/tf_op_layer_strided_slice_104/strided_slice_104/begin", "op": "Const", "attr": {"dtype": {"type": "DT_INT32"}, "value": {"tensor": {"dtype": "DT_INT32", "tensorShape": {"dim": [{"size": "2"}]}}}}}, {"name": "StatefulPartitionedCall/SmileFaceModel/tf_op_layer_strided_slice_104/strided_slice_104/end", "op": "Const", "attr": {"value": {"tensor": {"dtype": "DT_INT32", "tensorShape": {"dim": [{"size": "2"}]}}}, "dtype": {"type": "DT_INT32"}}}, {"name": "StatefulPartitionedCall/SmileFaceModel/tf_op_layer_strided_slice_104/strided_slice_104/strides", "op": "Const", "attr": {"dtype": {"type": "DT_INT32"}, "value": {"tensor": {"dtype": "DT_INT32", "tensorShape": {"dim": [{"size": "2"}]}}}}}, {"name": "StatefulPartitionedCall/SmileFaceModel/tf_op_layer_Mul_41/Mul_41/y", "op": "Const", "attr": {"value": {"tensor": {"dtype": "DT_FLOAT", "tensorShape": {}}}, "dtype": {"type": "DT_FLOAT"}}}, {"name": "StatefulPartitionedCall/SmileFaceModel/tf_op_layer_strided_slice_105/strided_slice_105/begin", "op": "Const", "attr": {"dtype": {"type": "DT_INT32"}, "value": {"tensor": {"dtype": "DT_INT32", "tensorShape": {"dim": [{"size": "2"}]}}}}}, {"name": "StatefulPartitionedCall/SmileFaceModel/tf_op_layer_strided_slice_105/strided_slice_105/end", "op": "Const", "attr": {"dtype": {"type": "DT_INT32"}, "value": {"tensor": {"dtype": "DT_INT32", "tensorShape": {"dim": [{"size": "2"}]}}}}}, {"name": "StatefulPartitionedCall/SmileFaceModel/tf_op_layer_strided_slice_105/strided_slice_105/strides", "op": "Const", "attr": {"dtype": {"type": "DT_INT32"}, "value": {"tensor": {"dtype": "DT_INT32", "tensorShape": {"dim": [{"size": "2"}]}}}}}, {"name": "StatefulPartitionedCall/SmileFaceModel/tf_op_layer_strided_slice_106/strided_slice_106/begin", "op": "Const", "attr": {"dtype": {"type": "DT_INT32"}, "value": {"tensor": {"dtype": "DT_INT32", "tensorShape": {"dim": [{"size": "2"}]}}}}}, {"name": "StatefulPartitionedCall/SmileFaceModel/tf_op_layer_strided_slice_106/strided_slice_106/end", "op": "Const", "attr": {"dtype": {"type": "DT_INT32"}, "value": {"tensor": {"dtype": "DT_INT32", "tensorShape": {"dim": [{"size": "2"}]}}}}}, {"name": "StatefulPartitionedCall/SmileFaceModel/tf_op_layer_strided_slice_106/strided_slice_106/strides", "op": "Const", "attr": {"value": {"tensor": {"dtype": "DT_INT32", "tensorShape": {"dim": [{"size": "2"}]}}}, "dtype": {"type": "DT_INT32"}}}, {"name": "StatefulPartitionedCall/SmileFaceModel/tf_op_layer_strided_slice_107/strided_slice_107/begin", "op": "Const", "attr": {"value": {"tensor": {"dtype": "DT_INT32", "tensorShape": {"dim": [{"size": "2"}]}}}, "dtype": {"type": "DT_INT32"}}}, {"name": "StatefulPartitionedCall/SmileFaceModel/tf_op_layer_strided_slice_107/strided_slice_107/end", "op": "Const", "attr": {"dtype": {"type": "DT_INT32"}, "value": {"tensor": {"dtype": "DT_INT32", "tensorShape": {"dim": [{"size": "2"}]}}}}}, {"name": "StatefulPartitionedCall/SmileFaceModel/tf_op_layer_strided_slice_107/strided_slice_107/strides", "op": "Const", "attr": {"dtype": {"type": "DT_INT32"}, "value": {"tensor": {"dtype": "DT_INT32", "tensorShape": {"dim": [{"size": "2"}]}}}}}, {"name": "StatefulPartitionedCall/SmileFaceModel/tf_op_layer_Mul_43/Mul_43/y", "op": "Const", "attr": {"dtype": {"type": "DT_FLOAT"}, "value": {"tensor": {"dtype": "DT_FLOAT", "tensorShape": {}}}}}, {"name": "StatefulPartitionedCall/SmileFaceModel/tf_op_layer_strided_slice_108/strided_slice_108/begin", "op": "Const", "attr": {"dtype": {"type": "DT_INT32"}, "value": {"tensor": {"dtype": "DT_INT32", "tensorShape": {"dim": [{"size": "2"}]}}}}}, {"name": "StatefulPartitionedCall/SmileFaceModel/tf_op_layer_strided_slice_108/strided_slice_108/end", "op": "Const", "attr": {"value": {"tensor": {"dtype": "DT_INT32", "tensorShape": {"dim": [{"size": "2"}]}}}, "dtype": {"type": "DT_INT32"}}}, {"name": "StatefulPartitionedCall/SmileFaceModel/tf_op_layer_strided_slice_108/strided_slice_108/strides", "op": "Const", "attr": {"dtype": {"type": "DT_INT32"}, "value": {"tensor": {"dtype": "DT_INT32", "tensorShape": {"dim": [{"size": "2"}]}}}}}, {"name": "StatefulPartitionedCall/SmileFaceModel/tf_op_layer_strided_slice_109/strided_slice_109/begin", "op": "Const", "attr": {"dtype": {"type": "DT_INT32"}, "value": {"tensor": {"dtype": "DT_INT32", "tensorShape": {"dim": [{"size": "2"}]}}}}}, {"name": "StatefulPartitionedCall/SmileFaceModel/tf_op_layer_strided_slice_109/strided_slice_109/end", "op": "Const", "attr": {"value": {"tensor": {"dtype": "DT_INT32", "tensorShape": {"dim": [{"size": "2"}]}}}, "dtype": {"type": "DT_INT32"}}}, {"name": "StatefulPartitionedCall/SmileFaceModel/tf_op_layer_strided_slice_109/strided_slice_109/strides", "op": "Const", "attr": {"dtype": {"type": "DT_INT32"}, "value": {"tensor": {"dtype": "DT_INT32", "tensorShape": {"dim": [{"size": "2"}]}}}}}, {"name": "StatefulPartitionedCall/SmileFaceModel/tf_op_layer_strided_slice_110/strided_slice_110/begin", "op": "Const", "attr": {"value": {"tensor": {"dtype": "DT_INT32", "tensorShape": {"dim": [{"size": "2"}]}}}, "dtype": {"type": "DT_INT32"}}}, {"name": "StatefulPartitionedCall/SmileFaceModel/tf_op_layer_strided_slice_110/strided_slice_110/end", "op": "Const", "attr": {"value": {"tensor": {"dtype": "DT_INT32", "tensorShape": {"dim": [{"size": "2"}]}}}, "dtype": {"type": "DT_INT32"}}}, {"name": "StatefulPartitionedCall/SmileFaceModel/tf_op_layer_strided_slice_110/strided_slice_110/strides", "op": "Const", "attr": {"value": {"tensor": {"dtype": "DT_INT32", "tensorShape": {"dim": [{"size": "2"}]}}}, "dtype": {"type": "DT_INT32"}}}, {"name": "StatefulPartitionedCall/SmileFaceModel/tf_op_layer_Mul_45/Mul_45/y", "op": "Const", "attr": {"dtype": {"type": "DT_FLOAT"}, "value": {"tensor": {"dtype": "DT_FLOAT", "tensorShape": {}}}}}, {"name": "StatefulPartitionedCall/SmileFaceModel/tf_op_layer_strided_slice_111/strided_slice_111/begin", "op": "Const", "attr": {"value": {"tensor": {"dtype": "DT_INT32", "tensorShape": {"dim": [{"size": "2"}]}}}, "dtype": {"type": "DT_INT32"}}}, {"name": "StatefulPartitionedCall/SmileFaceModel/tf_op_layer_strided_slice_111/strided_slice_111/end", "op": "Const", "attr": {"value": {"tensor": {"dtype": "DT_INT32", "tensorShape": {"dim": [{"size": "2"}]}}}, "dtype": {"type": "DT_INT32"}}}, {"name": "StatefulPartitionedCall/SmileFaceModel/tf_op_layer_strided_slice_111/strided_slice_111/strides", "op": "Const", "attr": {"dtype": {"type": "DT_INT32"}, "value": {"tensor": {"dtype": "DT_INT32", "tensorShape": {"dim": [{"size": "2"}]}}}}}, {"name": "StatefulPartitionedCall/SmileFaceModel/tf_op_layer_strided_slice_112/strided_slice_112/begin", "op": "Const", "attr": {"value": {"tensor": {"dtype": "DT_INT32", "tensorShape": {"dim": [{"size": "2"}]}}}, "dtype": {"type": "DT_INT32"}}}, {"name": "StatefulPartitionedCall/SmileFaceModel/tf_op_layer_strided_slice_112/strided_slice_112/end", "op": "Const", "attr": {"value": {"tensor": {"dtype": "DT_INT32", "tensorShape": {"dim": [{"size": "2"}]}}}, "dtype": {"type": "DT_INT32"}}}, {"name": "StatefulPartitionedCall/SmileFaceModel/tf_op_layer_strided_slice_112/strided_slice_112/strides", "op": "Const", "attr": {"dtype": {"type": "DT_INT32"}, "value": {"tensor": {"dtype": "DT_INT32", "tensorShape": {"dim": [{"size": "2"}]}}}}}, {"name": "StatefulPartitionedCall/SmileFaceModel/tf_op_layer_strided_slice_113/strided_slice_113/begin", "op": "Const", "attr": {"dtype": {"type": "DT_INT32"}, "value": {"tensor": {"dtype": "DT_INT32", "tensorShape": {"dim": [{"size": "2"}]}}}}}, {"name": "StatefulPartitionedCall/SmileFaceModel/tf_op_layer_strided_slice_113/strided_slice_113/end", "op": "Const", "attr": {"value": {"tensor": {"dtype": "DT_INT32", "tensorShape": {"dim": [{"size": "2"}]}}}, "dtype": {"type": "DT_INT32"}}}, {"name": "StatefulPartitionedCall/SmileFaceModel/tf_op_layer_strided_slice_113/strided_slice_113/strides", "op": "Const", "attr": {"value": {"tensor": {"dtype": "DT_INT32", "tensorShape": {"dim": [{"size": "2"}]}}}, "dtype": {"type": "DT_INT32"}}}, {"name": "StatefulPartitionedCall/SmileFaceModel/tf_op_layer_Mul_47/Mul_47/y", "op": "Const", "attr": {"dtype": {"type": "DT_FLOAT"}, "value": {"tensor": {"dtype": "DT_FLOAT", "tensorShape": {}}}}}, {"name": "StatefulPartitionedCall/SmileFaceModel/tf_op_layer_strided_slice_114/strided_slice_114/begin", "op": "Const", "attr": {"value": {"tensor": {"dtype": "DT_INT32", "tensorShape": {"dim": [{"size": "2"}]}}}, "dtype": {"type": "DT_INT32"}}}, {"name": "StatefulPartitionedCall/SmileFaceModel/tf_op_layer_strided_slice_114/strided_slice_114/end", "op": "Const", "attr": {"dtype": {"type": "DT_INT32"}, "value": {"tensor": {"dtype": "DT_INT32", "tensorShape": {"dim": [{"size": "2"}]}}}}}, {"name": "StatefulPartitionedCall/SmileFaceModel/tf_op_layer_strided_slice_114/strided_slice_114/strides", "op": "Const", "attr": {"value": {"tensor": {"dtype": "DT_INT32", "tensorShape": {"dim": [{"size": "2"}]}}}, "dtype": {"type": "DT_INT32"}}}, {"name": "StatefulPartitionedCall/SmileFaceModel/tf_op_layer_strided_slice_115/strided_slice_115/begin", "op": "Const", "attr": {"dtype": {"type": "DT_INT32"}, "value": {"tensor": {"dtype": "DT_INT32", "tensorShape": {"dim": [{"size": "2"}]}}}}}, {"name": "StatefulPartitionedCall/SmileFaceModel/tf_op_layer_strided_slice_115/strided_slice_115/end", "op": "Const", "attr": {"dtype": {"type": "DT_INT32"}, "value": {"tensor": {"dtype": "DT_INT32", "tensorShape": {"dim": [{"size": "2"}]}}}}}, {"name": "StatefulPartitionedCall/SmileFaceModel/tf_op_layer_strided_slice_115/strided_slice_115/strides", "op": "Const", "attr": {"dtype": {"type": "DT_INT32"}, "value": {"tensor": {"dtype": "DT_INT32", "tensorShape": {"dim": [{"size": "2"}]}}}}}, {"name": "StatefulPartitionedCall/SmileFaceModel/tf_op_layer_strided_slice_116/strided_slice_116/begin", "op": "Const", "attr": {"dtype": {"type": "DT_INT32"}, "value": {"tensor": {"dtype": "DT_INT32", "tensorShape": {"dim": [{"size": "2"}]}}}}}, {"name": "StatefulPartitionedCall/SmileFaceModel/tf_op_layer_strided_slice_116/strided_slice_116/end", "op": "Const", "attr": {"dtype": {"type": "DT_INT32"}, "value": {"tensor": {"dtype": "DT_INT32", "tensorShape": {"dim": [{"size": "2"}]}}}}}, {"name": "StatefulPartitionedCall/SmileFaceModel/tf_op_layer_strided_slice_116/strided_slice_116/strides", "op": "Const", "attr": {"value": {"tensor": {"dtype": "DT_INT32", "tensorShape": {"dim": [{"size": "2"}]}}}, "dtype": {"type": "DT_INT32"}}}, {"name": "StatefulPartitionedCall/SmileFaceModel/tf_op_layer_Mul_49/Mul_49/y", "op": "Const", "attr": {"dtype": {"type": "DT_FLOAT"}, "value": {"tensor": {"dtype": "DT_FLOAT", "tensorShape": {}}}}}, {"name": "StatefulPartitionedCall/SmileFaceModel/tf_op_layer_strided_slice_117/strided_slice_117/begin", "op": "Const", "attr": {"dtype": {"type": "DT_INT32"}, "value": {"tensor": {"dtype": "DT_INT32", "tensorShape": {"dim": [{"size": "2"}]}}}}}, {"name": "StatefulPartitionedCall/SmileFaceModel/tf_op_layer_strided_slice_117/strided_slice_117/end", "op": "Const", "attr": {"dtype": {"type": "DT_INT32"}, "value": {"tensor": {"dtype": "DT_INT32", "tensorShape": {"dim": [{"size": "2"}]}}}}}, {"name": "StatefulPartitionedCall/SmileFaceModel/tf_op_layer_strided_slice_117/strided_slice_117/strides", "op": "Const", "attr": {"dtype": {"type": "DT_INT32"}, "value": {"tensor": {"dtype": "DT_INT32", "tensorShape": {"dim": [{"size": "2"}]}}}}}, {"name": "StatefulPartitionedCall/SmileFaceModel/tf_op_layer_strided_slice_118/strided_slice_118/begin", "op": "Const", "attr": {"dtype": {"type": "DT_INT32"}, "value": {"tensor": {"dtype": "DT_INT32", "tensorShape": {"dim": [{"size": "2"}]}}}}}, {"name": "StatefulPartitionedCall/SmileFaceModel/tf_op_layer_strided_slice_118/strided_slice_118/end", "op": "Const", "attr": {"value": {"tensor": {"dtype": "DT_INT32", "tensorShape": {"dim": [{"size": "2"}]}}}, "dtype": {"type": "DT_INT32"}}}, {"name": "StatefulPartitionedCall/SmileFaceModel/tf_op_layer_strided_slice_118/strided_slice_118/strides", "op": "Const", "attr": {"value": {"tensor": {"dtype": "DT_INT32", "tensorShape": {"dim": [{"size": "2"}]}}}, "dtype": {"type": "DT_INT32"}}}, {"name": "StatefulPartitionedCall/SmileFaceModel/tf_op_layer_strided_slice_119/strided_slice_119/begin", "op": "Const", "attr": {"dtype": {"type": "DT_INT32"}, "value": {"tensor": {"dtype": "DT_INT32", "tensorShape": {"dim": [{"size": "2"}]}}}}}, {"name": "StatefulPartitionedCall/SmileFaceModel/tf_op_layer_strided_slice_119/strided_slice_119/end", "op": "Const", "attr": {"dtype": {"type": "DT_INT32"}, "value": {"tensor": {"dtype": "DT_INT32", "tensorShape": {"dim": [{"size": "2"}]}}}}}, {"name": "StatefulPartitionedCall/SmileFaceModel/tf_op_layer_strided_slice_119/strided_slice_119/strides", "op": "Const", "attr": {"value": {"tensor": {"dtype": "DT_INT32", "tensorShape": {"dim": [{"size": "2"}]}}}, "dtype": {"type": "DT_INT32"}}}, {"name": "StatefulPartitionedCall/SmileFaceModel/tf_op_layer_Mul_51/Mul_51/y", "op": "Const", "attr": {"dtype": {"type": "DT_FLOAT"}, "value": {"tensor": {"dtype": "DT_FLOAT", "tensorShape": {}}}}}, {"name": "StatefulPartitionedCall/SmileFaceModel/tf_op_layer_strided_slice_120/strided_slice_120/begin", "op": "Const", "attr": {"dtype": {"type": "DT_INT32"}, "value": {"tensor": {"dtype": "DT_INT32", "tensorShape": {"dim": [{"size": "2"}]}}}}}, {"name": "StatefulPartitionedCall/SmileFaceModel/tf_op_layer_strided_slice_120/strided_slice_120/end", "op": "Const", "attr": {"dtype": {"type": "DT_INT32"}, "value": {"tensor": {"dtype": "DT_INT32", "tensorShape": {"dim": [{"size": "2"}]}}}}}, {"name": "StatefulPartitionedCall/SmileFaceModel/tf_op_layer_strided_slice_120/strided_slice_120/strides", "op": "Const", "attr": {"dtype": {"type": "DT_INT32"}, "value": {"tensor": {"dtype": "DT_INT32", "tensorShape": {"dim": [{"size": "2"}]}}}}}, {"name": "StatefulPartitionedCall/SmileFaceModel/tf_op_layer_strided_slice_121/strided_slice_121/begin", "op": "Const", "attr": {"value": {"tensor": {"dtype": "DT_INT32", "tensorShape": {"dim": [{"size": "2"}]}}}, "dtype": {"type": "DT_INT32"}}}, {"name": "StatefulPartitionedCall/SmileFaceModel/tf_op_layer_strided_slice_121/strided_slice_121/end", "op": "Const", "attr": {"dtype": {"type": "DT_INT32"}, "value": {"tensor": {"dtype": "DT_INT32", "tensorShape": {"dim": [{"size": "2"}]}}}}}, {"name": "StatefulPartitionedCall/SmileFaceModel/tf_op_layer_strided_slice_121/strided_slice_121/strides", "op": "Const", "attr": {"dtype": {"type": "DT_INT32"}, "value": {"tensor": {"dtype": "DT_INT32", "tensorShape": {"dim": [{"size": "2"}]}}}}}, {"name": "StatefulPartitionedCall/SmileFaceModel/tf_op_layer_strided_slice_122/strided_slice_122/begin", "op": "Const", "attr": {"dtype": {"type": "DT_INT32"}, "value": {"tensor": {"dtype": "DT_INT32", "tensorShape": {"dim": [{"size": "2"}]}}}}}, {"name": "StatefulPartitionedCall/SmileFaceModel/tf_op_layer_strided_slice_122/strided_slice_122/end", "op": "Const", "attr": {"value": {"tensor": {"dtype": "DT_INT32", "tensorShape": {"dim": [{"size": "2"}]}}}, "dtype": {"type": "DT_INT32"}}}, {"name": "StatefulPartitionedCall/SmileFaceModel/tf_op_layer_strided_slice_122/strided_slice_122/strides", "op": "Const", "attr": {"dtype": {"type": "DT_INT32"}, "value": {"tensor": {"dtype": "DT_INT32", "tensorShape": {"dim": [{"size": "2"}]}}}}}, {"name": "StatefulPartitionedCall/SmileFaceModel/tf_op_layer_Mul_53/Mul_53/y", "op": "Const", "attr": {"value": {"tensor": {"dtype": "DT_FLOAT", "tensorShape": {}}}, "dtype": {"type": "DT_FLOAT"}}}, {"name": "StatefulPartitionedCall/SmileFaceModel/tf_op_layer_strided_slice_123/strided_slice_123/begin", "op": "Const", "attr": {"dtype": {"type": "DT_INT32"}, "value": {"tensor": {"dtype": "DT_INT32", "tensorShape": {"dim": [{"size": "2"}]}}}}}, {"name": "StatefulPartitionedCall/SmileFaceModel/tf_op_layer_strided_slice_123/strided_slice_123/end", "op": "Const", "attr": {"value": {"tensor": {"dtype": "DT_INT32", "tensorShape": {"dim": [{"size": "2"}]}}}, "dtype": {"type": "DT_INT32"}}}, {"name": "StatefulPartitionedCall/SmileFaceModel/tf_op_layer_strided_slice_123/strided_slice_123/strides", "op": "Const", "attr": {"dtype": {"type": "DT_INT32"}, "value": {"tensor": {"dtype": "DT_INT32", "tensorShape": {"dim": [{"size": "2"}]}}}}}, {"name": "StatefulPartitionedCall/SmileFaceModel/tf_op_layer_strided_slice_124/strided_slice_124/begin", "op": "Const", "attr": {"value": {"tensor": {"dtype": "DT_INT32", "tensorShape": {"dim": [{"size": "2"}]}}}, "dtype": {"type": "DT_INT32"}}}, {"name": "StatefulPartitionedCall/SmileFaceModel/tf_op_layer_strided_slice_124/strided_slice_124/end", "op": "Const", "attr": {"value": {"tensor": {"dtype": "DT_INT32", "tensorShape": {"dim": [{"size": "2"}]}}}, "dtype": {"type": "DT_INT32"}}}, {"name": "StatefulPartitionedCall/SmileFaceModel/tf_op_layer_strided_slice_124/strided_slice_124/strides", "op": "Const", "attr": {"value": {"tensor": {"dtype": "DT_INT32", "tensorShape": {"dim": [{"size": "2"}]}}}, "dtype": {"type": "DT_INT32"}}}, {"name": "StatefulPartitionedCall/SmileFaceModel/tf_op_layer_strided_slice_125/strided_slice_125/begin", "op": "Const", "attr": {"dtype": {"type": "DT_INT32"}, "value": {"tensor": {"dtype": "DT_INT32", "tensorShape": {"dim": [{"size": "2"}]}}}}}, {"name": "StatefulPartitionedCall/SmileFaceModel/tf_op_layer_strided_slice_125/strided_slice_125/end", "op": "Const", "attr": {"value": {"tensor": {"dtype": "DT_INT32", "tensorShape": {"dim": [{"size": "2"}]}}}, "dtype": {"type": "DT_INT32"}}}, {"name": "StatefulPartitionedCall/SmileFaceModel/tf_op_layer_strided_slice_125/strided_slice_125/strides", "op": "Const", "attr": {"value": {"tensor": {"dtype": "DT_INT32", "tensorShape": {"dim": [{"size": "2"}]}}}, "dtype": {"type": "DT_INT32"}}}, {"name": "StatefulPartitionedCall/SmileFaceModel/tf_op_layer_Mul_55/Mul_55/y", "op": "Const", "attr": {"dtype": {"type": "DT_FLOAT"}, "value": {"tensor": {"dtype": "DT_FLOAT", "tensorShape": {}}}}}, {"name": "StatefulPartitionedCall/SmileFaceModel/tf_op_layer_strided_slice_126/strided_slice_126/begin", "op": "Const", "attr": {"value": {"tensor": {"dtype": "DT_INT32", "tensorShape": {"dim": [{"size": "2"}]}}}, "dtype": {"type": "DT_INT32"}}}, {"name": "StatefulPartitionedCall/SmileFaceModel/tf_op_layer_strided_slice_126/strided_slice_126/end", "op": "Const", "attr": {"value": {"tensor": {"dtype": "DT_INT32", "tensorShape": {"dim": [{"size": "2"}]}}}, "dtype": {"type": "DT_INT32"}}}, {"name": "StatefulPartitionedCall/SmileFaceModel/tf_op_layer_strided_slice_126/strided_slice_126/strides", "op": "Const", "attr": {"value": {"tensor": {"dtype": "DT_INT32", "tensorShape": {"dim": [{"size": "2"}]}}}, "dtype": {"type": "DT_INT32"}}}, {"name": "StatefulPartitionedCall/SmileFaceModel/tf_op_layer_strided_slice_127/strided_slice_127/begin", "op": "Const", "attr": {"dtype": {"type": "DT_INT32"}, "value": {"tensor": {"dtype": "DT_INT32", "tensorShape": {"dim": [{"size": "2"}]}}}}}, {"name": "StatefulPartitionedCall/SmileFaceModel/tf_op_layer_strided_slice_127/strided_slice_127/end", "op": "Const", "attr": {"dtype": {"type": "DT_INT32"}, "value": {"tensor": {"dtype": "DT_INT32", "tensorShape": {"dim": [{"size": "2"}]}}}}}, {"name": "StatefulPartitionedCall/SmileFaceModel/tf_op_layer_strided_slice_127/strided_slice_127/strides", "op": "Const", "attr": {"dtype": {"type": "DT_INT32"}, "value": {"tensor": {"dtype": "DT_INT32", "tensorShape": {"dim": [{"size": "2"}]}}}}}, {"name": "StatefulPartitionedCall/SmileFaceModel/tf_op_layer_strided_slice_128/strided_slice_128/begin", "op": "Const", "attr": {"dtype": {"type": "DT_INT32"}, "value": {"tensor": {"dtype": "DT_INT32", "tensorShape": {"dim": [{"size": "2"}]}}}}}, {"name": "StatefulPartitionedCall/SmileFaceModel/tf_op_layer_strided_slice_128/strided_slice_128/end", "op": "Const", "attr": {"dtype": {"type": "DT_INT32"}, "value": {"tensor": {"dtype": "DT_INT32", "tensorShape": {"dim": [{"size": "2"}]}}}}}, {"name": "StatefulPartitionedCall/SmileFaceModel/tf_op_layer_strided_slice_128/strided_slice_128/strides", "op": "Const", "attr": {"value": {"tensor": {"dtype": "DT_INT32", "tensorShape": {"dim": [{"size": "2"}]}}}, "dtype": {"type": "DT_INT32"}}}, {"name": "StatefulPartitionedCall/SmileFaceModel/tf_op_layer_Mul_57/Mul_57/y", "op": "Const", "attr": {"value": {"tensor": {"dtype": "DT_FLOAT", "tensorShape": {}}}, "dtype": {"type": "DT_FLOAT"}}}, {"name": "StatefulPartitionedCall/SmileFaceModel/tf_op_layer_strided_slice_129/strided_slice_129/begin", "op": "Const", "attr": {"value": {"tensor": {"dtype": "DT_INT32", "tensorShape": {"dim": [{"size": "2"}]}}}, "dtype": {"type": "DT_INT32"}}}, {"name": "StatefulPartitionedCall/SmileFaceModel/tf_op_layer_strided_slice_129/strided_slice_129/end", "op": "Const", "attr": {"value": {"tensor": {"dtype": "DT_INT32", "tensorShape": {"dim": [{"size": "2"}]}}}, "dtype": {"type": "DT_INT32"}}}, {"name": "StatefulPartitionedCall/SmileFaceModel/tf_op_layer_strided_slice_129/strided_slice_129/strides", "op": "Const", "attr": {"value": {"tensor": {"dtype": "DT_INT32", "tensorShape": {"dim": [{"size": "2"}]}}}, "dtype": {"type": "DT_INT32"}}}, {"name": "StatefulPartitionedCall/SmileFaceModel/tf_op_layer_strided_slice_130/strided_slice_130/begin", "op": "Const", "attr": {"dtype": {"type": "DT_INT32"}, "value": {"tensor": {"dtype": "DT_INT32", "tensorShape": {"dim": [{"size": "2"}]}}}}}, {"name": "StatefulPartitionedCall/SmileFaceModel/tf_op_layer_strided_slice_130/strided_slice_130/end", "op": "Const", "attr": {"value": {"tensor": {"dtype": "DT_INT32", "tensorShape": {"dim": [{"size": "2"}]}}}, "dtype": {"type": "DT_INT32"}}}, {"name": "StatefulPartitionedCall/SmileFaceModel/tf_op_layer_strided_slice_130/strided_slice_130/strides", "op": "Const", "attr": {"dtype": {"type": "DT_INT32"}, "value": {"tensor": {"dtype": "DT_INT32", "tensorShape": {"dim": [{"size": "2"}]}}}}}, {"name": "StatefulPartitionedCall/SmileFaceModel/tf_op_layer_strided_slice_131/strided_slice_131/begin", "op": "Const", "attr": {"dtype": {"type": "DT_INT32"}, "value": {"tensor": {"dtype": "DT_INT32", "tensorShape": {"dim": [{"size": "2"}]}}}}}, {"name": "StatefulPartitionedCall/SmileFaceModel/tf_op_layer_strided_slice_131/strided_slice_131/end", "op": "Const", "attr": {"value": {"tensor": {"dtype": "DT_INT32", "tensorShape": {"dim": [{"size": "2"}]}}}, "dtype": {"type": "DT_INT32"}}}, {"name": "StatefulPartitionedCall/SmileFaceModel/tf_op_layer_strided_slice_131/strided_slice_131/strides", "op": "Const", "attr": {"value": {"tensor": {"dtype": "DT_INT32", "tensorShape": {"dim": [{"size": "2"}]}}}, "dtype": {"type": "DT_INT32"}}}, {"name": "StatefulPartitionedCall/SmileFaceModel/tf_op_layer_Mul_59/Mul_59/y", "op": "Const", "attr": {"dtype": {"type": "DT_FLOAT"}, "value": {"tensor": {"dtype": "DT_FLOAT", "tensorShape": {}}}}}, {"name": "StatefulPartitionedCall/SmileFaceModel/tf_op_layer_strided_slice_132/strided_slice_132/begin", "op": "Const", "attr": {"value": {"tensor": {"dtype": "DT_INT32", "tensorShape": {"dim": [{"size": "2"}]}}}, "dtype": {"type": "DT_INT32"}}}, {"name": "StatefulPartitionedCall/SmileFaceModel/tf_op_layer_strided_slice_132/strided_slice_132/end", "op": "Const", "attr": {"dtype": {"type": "DT_INT32"}, "value": {"tensor": {"dtype": "DT_INT32", "tensorShape": {"dim": [{"size": "2"}]}}}}}, {"name": "StatefulPartitionedCall/SmileFaceModel/tf_op_layer_strided_slice_132/strided_slice_132/strides", "op": "Const", "attr": {"value": {"tensor": {"dtype": "DT_INT32", "tensorShape": {"dim": [{"size": "2"}]}}}, "dtype": {"type": "DT_INT32"}}}, {"name": "StatefulPartitionedCall/SmileFaceModel/tf_op_layer_strided_slice_133/strided_slice_133/begin", "op": "Const", "attr": {"dtype": {"type": "DT_INT32"}, "value": {"tensor": {"dtype": "DT_INT32", "tensorShape": {"dim": [{"size": "2"}]}}}}}, {"name": "StatefulPartitionedCall/SmileFaceModel/tf_op_layer_strided_slice_133/strided_slice_133/end", "op": "Const", "attr": {"dtype": {"type": "DT_INT32"}, "value": {"tensor": {"dtype": "DT_INT32", "tensorShape": {"dim": [{"size": "2"}]}}}}}, {"name": "StatefulPartitionedCall/SmileFaceModel/tf_op_layer_strided_slice_133/strided_slice_133/strides", "op": "Const", "attr": {"value": {"tensor": {"dtype": "DT_INT32", "tensorShape": {"dim": [{"size": "2"}]}}}, "dtype": {"type": "DT_INT32"}}}, {"name": "StatefulPartitionedCall/SmileFaceModel/tf_op_layer_strided_slice_134/strided_slice_134/begin", "op": "Const", "attr": {"dtype": {"type": "DT_INT32"}, "value": {"tensor": {"dtype": "DT_INT32", "tensorShape": {"dim": [{"size": "2"}]}}}}}, {"name": "StatefulPartitionedCall/SmileFaceModel/tf_op_layer_strided_slice_134/strided_slice_134/end", "op": "Const", "attr": {"dtype": {"type": "DT_INT32"}, "value": {"tensor": {"dtype": "DT_INT32", "tensorShape": {"dim": [{"size": "2"}]}}}}}, {"name": "StatefulPartitionedCall/SmileFaceModel/tf_op_layer_strided_slice_134/strided_slice_134/strides", "op": "Const", "attr": {"dtype": {"type": "DT_INT32"}, "value": {"tensor": {"dtype": "DT_INT32", "tensorShape": {"dim": [{"size": "2"}]}}}}}, {"name": "StatefulPartitionedCall/SmileFaceModel/tf_op_layer_Mul_61/Mul_61/y", "op": "Const", "attr": {"dtype": {"type": "DT_FLOAT"}, "value": {"tensor": {"dtype": "DT_FLOAT", "tensorShape": {}}}}}, {"name": "StatefulPartitionedCall/SmileFaceModel/tf_op_layer_strided_slice_135/strided_slice_135/begin", "op": "Const", "attr": {"value": {"tensor": {"dtype": "DT_INT32", "tensorShape": {"dim": [{"size": "2"}]}}}, "dtype": {"type": "DT_INT32"}}}, {"name": "StatefulPartitionedCall/SmileFaceModel/tf_op_layer_strided_slice_135/strided_slice_135/end", "op": "Const", "attr": {"dtype": {"type": "DT_INT32"}, "value": {"tensor": {"dtype": "DT_INT32", "tensorShape": {"dim": [{"size": "2"}]}}}}}, {"name": "StatefulPartitionedCall/SmileFaceModel/tf_op_layer_strided_slice_135/strided_slice_135/strides", "op": "Const", "attr": {"dtype": {"type": "DT_INT32"}, "value": {"tensor": {"dtype": "DT_INT32", "tensorShape": {"dim": [{"size": "2"}]}}}}}, {"name": "StatefulPartitionedCall/SmileFaceModel/tf_op_layer_strided_slice_136/strided_slice_136/begin", "op": "Const", "attr": {"value": {"tensor": {"dtype": "DT_INT32", "tensorShape": {"dim": [{"size": "2"}]}}}, "dtype": {"type": "DT_INT32"}}}, {"name": "StatefulPartitionedCall/SmileFaceModel/tf_op_layer_strided_slice_136/strided_slice_136/end", "op": "Const", "attr": {"value": {"tensor": {"dtype": "DT_INT32", "tensorShape": {"dim": [{"size": "2"}]}}}, "dtype": {"type": "DT_INT32"}}}, {"name": "StatefulPartitionedCall/SmileFaceModel/tf_op_layer_strided_slice_136/strided_slice_136/strides", "op": "Const", "attr": {"dtype": {"type": "DT_INT32"}, "value": {"tensor": {"dtype": "DT_INT32", "tensorShape": {"dim": [{"size": "2"}]}}}}}, {"name": "StatefulPartitionedCall/SmileFaceModel/tf_op_layer_strided_slice_137/strided_slice_137/begin", "op": "Const", "attr": {"dtype": {"type": "DT_INT32"}, "value": {"tensor": {"dtype": "DT_INT32", "tensorShape": {"dim": [{"size": "2"}]}}}}}, {"name": "StatefulPartitionedCall/SmileFaceModel/tf_op_layer_strided_slice_137/strided_slice_137/end", "op": "Const", "attr": {"value": {"tensor": {"dtype": "DT_INT32", "tensorShape": {"dim": [{"size": "2"}]}}}, "dtype": {"type": "DT_INT32"}}}, {"name": "StatefulPartitionedCall/SmileFaceModel/tf_op_layer_strided_slice_137/strided_slice_137/strides", "op": "Const", "attr": {"dtype": {"type": "DT_INT32"}, "value": {"tensor": {"dtype": "DT_INT32", "tensorShape": {"dim": [{"size": "2"}]}}}}}, {"name": "StatefulPartitionedCall/SmileFaceModel/tf_op_layer_Mul_63/Mul_63/y", "op": "Const", "attr": {"dtype": {"type": "DT_FLOAT"}, "value": {"tensor": {"dtype": "DT_FLOAT", "tensorShape": {}}}}}, {"name": "StatefulPartitionedCall/SmileFaceModel/tf_op_layer_strided_slice_138/strided_slice_138/begin", "op": "Const", "attr": {"dtype": {"type": "DT_INT32"}, "value": {"tensor": {"dtype": "DT_INT32", "tensorShape": {"dim": [{"size": "2"}]}}}}}, {"name": "StatefulPartitionedCall/SmileFaceModel/tf_op_layer_strided_slice_138/strided_slice_138/end", "op": "Const", "attr": {"dtype": {"type": "DT_INT32"}, "value": {"tensor": {"dtype": "DT_INT32", "tensorShape": {"dim": [{"size": "2"}]}}}}}, {"name": "StatefulPartitionedCall/SmileFaceModel/tf_op_layer_strided_slice_138/strided_slice_138/strides", "op": "Const", "attr": {"dtype": {"type": "DT_INT32"}, "value": {"tensor": {"dtype": "DT_INT32", "tensorShape": {"dim": [{"size": "2"}]}}}}}, {"name": "StatefulPartitionedCall/SmileFaceModel/tf_op_layer_strided_slice_139/strided_slice_139/begin", "op": "Const", "attr": {"value": {"tensor": {"dtype": "DT_INT32", "tensorShape": {"dim": [{"size": "2"}]}}}, "dtype": {"type": "DT_INT32"}}}, {"name": "StatefulPartitionedCall/SmileFaceModel/tf_op_layer_strided_slice_139/strided_slice_139/end", "op": "Const", "attr": {"value": {"tensor": {"dtype": "DT_INT32", "tensorShape": {"dim": [{"size": "2"}]}}}, "dtype": {"type": "DT_INT32"}}}, {"name": "StatefulPartitionedCall/SmileFaceModel/tf_op_layer_strided_slice_139/strided_slice_139/strides", "op": "Const", "attr": {"value": {"tensor": {"dtype": "DT_INT32", "tensorShape": {"dim": [{"size": "2"}]}}}, "dtype": {"type": "DT_INT32"}}}, {"name": "StatefulPartitionedCall/SmileFaceModel/tf_op_layer_strided_slice_69/strided_slice_69/begin", "op": "Const", "attr": {"dtype": {"type": "DT_INT32"}, "value": {"tensor": {"dtype": "DT_INT32", "tensorShape": {"dim": [{"size": "2"}]}}}}}, {"name": "StatefulPartitionedCall/SmileFaceModel/tf_op_layer_strided_slice_69/strided_slice_69/end", "op": "Const", "attr": {"dtype": {"type": "DT_INT32"}, "value": {"tensor": {"dtype": "DT_INT32", "tensorShape": {"dim": [{"size": "2"}]}}}}}, {"name": "StatefulPartitionedCall/SmileFaceModel/tf_op_layer_strided_slice_69/strided_slice_69/strides", "op": "Const", "attr": {"value": {"tensor": {"dtype": "DT_INT32", "tensorShape": {"dim": [{"size": "2"}]}}}, "dtype": {"type": "DT_INT32"}}}, {"name": "StatefulPartitionedCall/SmileFaceModel/tf_op_layer_strided_slice_140/strided_slice_140/begin", "op": "Const", "attr": {"value": {"tensor": {"dtype": "DT_INT32", "tensorShape": {"dim": [{"size": "2"}]}}}, "dtype": {"type": "DT_INT32"}}}, {"name": "StatefulPartitionedCall/SmileFaceModel/tf_op_layer_strided_slice_140/strided_slice_140/end", "op": "Const", "attr": {"value": {"tensor": {"dtype": "DT_INT32", "tensorShape": {"dim": [{"size": "2"}]}}}, "dtype": {"type": "DT_INT32"}}}, {"name": "StatefulPartitionedCall/SmileFaceModel/tf_op_layer_strided_slice_140/strided_slice_140/strides", "op": "Const", "attr": {"dtype": {"type": "DT_INT32"}, "value": {"tensor": {"dtype": "DT_INT32", "tensorShape": {"dim": [{"size": "2"}]}}}}}, {"name": "StatefulPartitionedCall/SmileFaceModel/tf_op_layer_Mul_65/Mul_65/y", "op": "Const", "attr": {"dtype": {"type": "DT_FLOAT"}, "value": {"tensor": {"dtype": "DT_FLOAT", "tensorShape": {}}}}}, {"name": "StatefulPartitionedCall/SmileFaceModel/tf_op_layer_ExpandDims_1/ExpandDims_1/dim", "op": "Const", "attr": {"value": {"tensor": {"dtype": "DT_INT32", "tensorShape": {}}}, "dtype": {"type": "DT_INT32"}}}, {"name": "StatefulPartitionedCall/SmileFaceModel/tf_op_layer_Tile/Tile/multiples", "op": "Const", "attr": {"value": {"tensor": {"dtype": "DT_INT32", "tensorShape": {"dim": [{"size": "3"}]}}}, "dtype": {"type": "DT_INT32"}}}, {"name": "StatefulPartitionedCall/SmileFaceModel/tf_op_layer_strided_slice_14/strided_slice_14/begin", "op": "Const", "attr": {"value": {"tensor": {"dtype": "DT_INT32", "tensorShape": {"dim": [{"size": "1"}]}}}, "dtype": {"type": "DT_INT32"}}}, {"name": "StatefulPartitionedCall/SmileFaceModel/tf_op_layer_strided_slice_14/strided_slice_14/end", "op": "Const", "attr": {"value": {"tensor": {"dtype": "DT_INT32", "tensorShape": {"dim": [{"size": "1"}]}}}, "dtype": {"type": "DT_INT32"}}}, {"name": "StatefulPartitionedCall/SmileFaceModel/tf_op_layer_strided_slice_14/strided_slice_14/strides", "op": "Const", "attr": {"value": {"tensor": {"dtype": "DT_INT32", "tensorShape": {"dim": [{"size": "1"}]}}}, "dtype": {"type": "DT_INT32"}}}, {"name": "StatefulPartitionedCall/SmileFaceModel/tf_op_layer_Mul_2/Tile/multiples/values_1", "op": "Const", "attr": {"dtype": {"type": "DT_INT32"}, "value": {"tensor": {"dtype": "DT_INT32", "tensorShape": {}}}}}, {"name": "StatefulPartitionedCall/SmileFaceModel/tf_op_layer_strided_slice_15/strided_slice_15/begin", "op": "Const", "attr": {"dtype": {"type": "DT_INT32"}, "value": {"tensor": {"dtype": "DT_INT32", "tensorShape": {"dim": [{"size": "1"}]}}}}}, {"name": "StatefulPartitionedCall/SmileFaceModel/tf_op_layer_strided_slice_15/strided_slice_15/end", "op": "Const", "attr": {"dtype": {"type": "DT_INT32"}, "value": {"tensor": {"dtype": "DT_INT32", "tensorShape": {"dim": [{"size": "1"}]}}}}}, {"name": "StatefulPartitionedCall/SmileFaceModel/tf_op_layer_strided_slice_15/strided_slice_15/strides", "op": "Const", "attr": {"value": {"tensor": {"dtype": "DT_INT32", "tensorShape": {"dim": [{"size": "1"}]}}}, "dtype": {"type": "DT_INT32"}}}, {"name": "StatefulPartitionedCall/SmileFaceModel/tf_op_layer_AddV2/AddV2/y", "op": "Const", "attr": {"value": {"tensor": {"dtype": "DT_FLOAT", "tensorShape": {}}}, "dtype": {"type": "DT_FLOAT"}}}, {"name": "StatefulPartitionedCall/SmileFaceModel/tf_op_layer_Mul/Mul/y", "op": "Const", "attr": {"value": {"tensor": {"dtype": "DT_FLOAT", "tensorShape": {}}}, "dtype": {"type": "DT_FLOAT"}}}, {"name": "StatefulPartitionedCall/SmileFaceModel/tf_op_layer_strided_slice_12/strided_slice_12/begin", "op": "Const", "attr": {"dtype": {"type": "DT_INT32"}, "value": {"tensor": {"dtype": "DT_INT32", "tensorShape": {"dim": [{"size": "1"}]}}}}}, {"name": "StatefulPartitionedCall/SmileFaceModel/tf_op_layer_strided_slice_12/strided_slice_12/end", "op": "Const", "attr": {"dtype": {"type": "DT_INT32"}, "value": {"tensor": {"dtype": "DT_INT32", "tensorShape": {"dim": [{"size": "1"}]}}}}}, {"name": "StatefulPartitionedCall/SmileFaceModel/tf_op_layer_strided_slice_12/strided_slice_12/strides", "op": "Const", "attr": {"value": {"tensor": {"dtype": "DT_INT32", "tensorShape": {"dim": [{"size": "1"}]}}}, "dtype": {"type": "DT_INT32"}}}, {"name": "StatefulPartitionedCall/SmileFaceModel/tf_op_layer_Reshape_2/Reshape_2/shape", "op": "Const", "attr": {"value": {"tensor": {"dtype": "DT_INT32", "tensorShape": {"dim": [{"size": "2"}]}}}, "dtype": {"type": "DT_INT32"}}}, {"name": "StatefulPartitionedCall/SmileFaceModel/tf_op_layer_AddV2_1/AddV2_1/y", "op": "Const", "attr": {"value": {"tensor": {"dtype": "DT_FLOAT", "tensorShape": {}}}, "dtype": {"type": "DT_FLOAT"}}}, {"name": "StatefulPartitionedCall/SmileFaceModel/tf_op_layer_Mul_1/Mul_1/y", "op": "Const", "attr": {"value": {"tensor": {"dtype": "DT_FLOAT", "tensorShape": {}}}, "dtype": {"type": "DT_FLOAT"}}}, {"name": "StatefulPartitionedCall/SmileFaceModel/tf_op_layer_strided_slice_13/strided_slice_13/begin", "op": "Const", "attr": {"value": {"tensor": {"dtype": "DT_INT32", "tensorShape": {"dim": [{"size": "1"}]}}}, "dtype": {"type": "DT_INT32"}}}, {"name": "StatefulPartitionedCall/SmileFaceModel/tf_op_layer_strided_slice_13/strided_slice_13/end", "op": "Const", "attr": {"value": {"tensor": {"dtype": "DT_INT32", "tensorShape": {"dim": [{"size": "1"}]}}}, "dtype": {"type": "DT_INT32"}}}, {"name": "StatefulPartitionedCall/SmileFaceModel/tf_op_layer_strided_slice_13/strided_slice_13/strides", "op": "Const", "attr": {"dtype": {"type": "DT_INT32"}, "value": {"tensor": {"dtype": "DT_INT32", "tensorShape": {"dim": [{"size": "1"}]}}}}}, {"name": "StatefulPartitionedCall/SmileFaceModel/tf_op_layer_Reshape_3/Reshape_3/shape", "op": "Const", "attr": {"value": {"tensor": {"dtype": "DT_INT32", "tensorShape": {"dim": [{"size": "2"}]}}}, "dtype": {"type": "DT_INT32"}}}, {"name": "StatefulPartitionedCall/SmileFaceModel/tf_op_layer_strided_slice_16/strided_slice_16/begin", "op": "Const", "attr": {"dtype": {"type": "DT_INT32"}, "value": {"tensor": {"dtype": "DT_INT32", "tensorShape": {"dim": [{"size": "1"}]}}}}}, {"name": "StatefulPartitionedCall/SmileFaceModel/tf_op_layer_strided_slice_16/strided_slice_16/end", "op": "Const", "attr": {"dtype": {"type": "DT_INT32"}, "value": {"tensor": {"dtype": "DT_INT32", "tensorShape": {"dim": [{"size": "1"}]}}}}}, {"name": "StatefulPartitionedCall/SmileFaceModel/tf_op_layer_strided_slice_16/strided_slice_16/strides", "op": "Const", "attr": {"value": {"tensor": {"dtype": "DT_INT32", "tensorShape": {"dim": [{"size": "1"}]}}}, "dtype": {"type": "DT_INT32"}}}, {"name": "StatefulPartitionedCall/SmileFaceModel/tf_op_layer_concat_5/concat_5/axis", "op": "Const", "attr": {"dtype": {"type": "DT_INT32"}, "value": {"tensor": {"dtype": "DT_INT32", "tensorShape": {}}}}}, {"name": "StatefulPartitionedCall/SmileFaceModel/tf_op_layer_RealDiv_4/RealDiv_4/x", "op": "Const", "attr": {"dtype": {"type": "DT_FLOAT"}, "value": {"tensor": {"dtype": "DT_FLOAT", "tensorShape": {"dim": [{"size": "2"}]}}}}}, {"name": "StatefulPartitionedCall/SmileFaceModel/tf_op_layer_strided_slice_17/strided_slice_17/begin", "op": "Const", "attr": {"dtype": {"type": "DT_INT32"}, "value": {"tensor": {"dtype": "DT_INT32", "tensorShape": {"dim": [{"size": "1"}]}}}}}, {"name": "StatefulPartitionedCall/SmileFaceModel/tf_op_layer_strided_slice_17/strided_slice_17/end", "op": "Const", "attr": {"dtype": {"type": "DT_INT32"}, "value": {"tensor": {"dtype": "DT_INT32", "tensorShape": {"dim": [{"size": "1"}]}}}}}, {"name": "StatefulPartitionedCall/SmileFaceModel/tf_op_layer_strided_slice_17/strided_slice_17/strides", "op": "Const", "attr": {"value": {"tensor": {"dtype": "DT_INT32", "tensorShape": {"dim": [{"size": "1"}]}}}, "dtype": {"type": "DT_INT32"}}}, {"name": "StatefulPartitionedCall/SmileFaceModel/tf_op_layer_RealDiv_5/RealDiv_5/x", "op": "Const", "attr": {"dtype": {"type": "DT_FLOAT"}, "value": {"tensor": {"dtype": "DT_FLOAT", "tensorShape": {"dim": [{"size": "2"}]}}}}}, {"name": "StatefulPartitionedCall/SmileFaceModel/tf_op_layer_strided_slice_18/strided_slice_18/begin", "op": "Const", "attr": {"dtype": {"type": "DT_INT32"}, "value": {"tensor": {"dtype": "DT_INT32", "tensorShape": {"dim": [{"size": "1"}]}}}}}, {"name": "StatefulPartitionedCall/SmileFaceModel/tf_op_layer_strided_slice_18/strided_slice_18/end", "op": "Const", "attr": {"value": {"tensor": {"dtype": "DT_INT32", "tensorShape": {"dim": [{"size": "1"}]}}}, "dtype": {"type": "DT_INT32"}}}, {"name": "StatefulPartitionedCall/SmileFaceModel/tf_op_layer_strided_slice_18/strided_slice_18/strides", "op": "Const", "attr": {"value": {"tensor": {"dtype": "DT_INT32", "tensorShape": {"dim": [{"size": "1"}]}}}, "dtype": {"type": "DT_INT32"}}}, {"name": "StatefulPartitionedCall/SmileFaceModel/tf_op_layer_strided_slice_19/strided_slice_19/begin", "op": "Const", "attr": {"value": {"tensor": {"dtype": "DT_INT32", "tensorShape": {"dim": [{"size": "1"}]}}}, "dtype": {"type": "DT_INT32"}}}, {"name": "StatefulPartitionedCall/SmileFaceModel/tf_op_layer_strided_slice_19/strided_slice_19/end", "op": "Const", "attr": {"dtype": {"type": "DT_INT32"}, "value": {"tensor": {"dtype": "DT_INT32", "tensorShape": {"dim": [{"size": "1"}]}}}}}, {"name": "StatefulPartitionedCall/SmileFaceModel/tf_op_layer_strided_slice_19/strided_slice_19/strides", "op": "Const", "attr": {"dtype": {"type": "DT_INT32"}, "value": {"tensor": {"dtype": "DT_INT32", "tensorShape": {"dim": [{"size": "1"}]}}}}}, {"name": "StatefulPartitionedCall/SmileFaceModel/tf_op_layer_ExpandDims_2/ExpandDims_2/dim", "op": "Const", "attr": {"dtype": {"type": "DT_INT32"}, "value": {"tensor": {"dtype": "DT_INT32", "tensorShape": {}}}}}, {"name": "StatefulPartitionedCall/SmileFaceModel/tf_op_layer_Tile_1/multiples/Tile_1/multiples/0", "op": "Const", "attr": {"value": {"tensor": {"dtype": "DT_INT32", "tensorShape": {}}}, "dtype": {"type": "DT_INT32"}}}, {"name": "StatefulPartitionedCall/SmileFaceModel/tf_op_layer_strided_slice_20/strided_slice_20/begin", "op": "Const", "attr": {"dtype": {"type": "DT_INT32"}, "value": {"tensor": {"dtype": "DT_INT32", "tensorShape": {"dim": [{"size": "1"}]}}}}}, {"name": "StatefulPartitionedCall/SmileFaceModel/tf_op_layer_strided_slice_20/strided_slice_20/end", "op": "Const", "attr": {"value": {"tensor": {"dtype": "DT_INT32", "tensorShape": {"dim": [{"size": "1"}]}}}, "dtype": {"type": "DT_INT32"}}}, {"name": "StatefulPartitionedCall/SmileFaceModel/tf_op_layer_strided_slice_20/strided_slice_20/strides", "op": "Const", "attr": {"dtype": {"type": "DT_INT32"}, "value": {"tensor": {"dtype": "DT_INT32", "tensorShape": {"dim": [{"size": "1"}]}}}}}, {"name": "StatefulPartitionedCall/SmileFaceModel/tf_op_layer_Reshape_1/Reshape_1/shape", "op": "Const", "attr": {"value": {"tensor": {"dtype": "DT_INT32", "tensorShape": {"dim": [{"size": "2"}]}}}, "dtype": {"type": "DT_INT32"}}}, {"name": "StatefulPartitionedCall/SmileFaceModel/tf_op_layer_Range_1/Range_1/start", "op": "Const", "attr": {"dtype": {"type": "DT_FLOAT"}, "value": {"tensor": {"dtype": "DT_FLOAT", "tensorShape": {}}}}}, {"name": "StatefulPartitionedCall/SmileFaceModel/tf_op_layer_strided_slice_8/strided_slice_8/begin", "op": "Const", "attr": {"dtype": {"type": "DT_INT32"}, "value": {"tensor": {"dtype": "DT_INT32", "tensorShape": {"dim": [{"size": "1"}]}}}}}, {"name": "StatefulPartitionedCall/SmileFaceModel/tf_op_layer_strided_slice_8/strided_slice_8/end", "op": "Const", "attr": {"value": {"tensor": {"dtype": "DT_INT32", "tensorShape": {"dim": [{"size": "1"}]}}}, "dtype": {"type": "DT_INT32"}}}, {"name": "StatefulPartitionedCall/SmileFaceModel/tf_op_layer_strided_slice_8/strided_slice_8/strides", "op": "Const", "attr": {"value": {"tensor": {"dtype": "DT_INT32", "tensorShape": {"dim": [{"size": "1"}]}}}, "dtype": {"type": "DT_INT32"}}}, {"name": "StatefulPartitionedCall/SmileFaceModel/tf_op_layer_strided_slice_9/strided_slice_9/begin", "op": "Const", "attr": {"dtype": {"type": "DT_INT32"}, "value": {"tensor": {"dtype": "DT_INT32", "tensorShape": {"dim": [{"size": "1"}]}}}}}, {"name": "StatefulPartitionedCall/SmileFaceModel/tf_op_layer_strided_slice_9/strided_slice_9/end", "op": "Const", "attr": {"dtype": {"type": "DT_INT32"}, "value": {"tensor": {"dtype": "DT_INT32", "tensorShape": {"dim": [{"size": "1"}]}}}}}, {"name": "StatefulPartitionedCall/SmileFaceModel/tf_op_layer_strided_slice_9/strided_slice_9/strides", "op": "Const", "attr": {"value": {"tensor": {"dtype": "DT_INT32", "tensorShape": {"dim": [{"size": "1"}]}}}, "dtype": {"type": "DT_INT32"}}}, {"name": "StatefulPartitionedCall/SmileFaceModel/tf_op_layer_Range_1/Range_1/delta", "op": "Const", "attr": {"dtype": {"type": "DT_FLOAT"}, "value": {"tensor": {"dtype": "DT_FLOAT", "tensorShape": {}}}}}, {"name": "StatefulPartitionedCall/SmileFaceModel/tf_op_layer_strided_slice_10/strided_slice_10/begin", "op": "Const", "attr": {"value": {"tensor": {"dtype": "DT_INT32", "tensorShape": {"dim": [{"size": "1"}]}}}, "dtype": {"type": "DT_INT32"}}}, {"name": "StatefulPartitionedCall/SmileFaceModel/tf_op_layer_strided_slice_10/strided_slice_10/end", "op": "Const", "attr": {"value": {"tensor": {"dtype": "DT_INT32", "tensorShape": {"dim": [{"size": "1"}]}}}, "dtype": {"type": "DT_INT32"}}}, {"name": "StatefulPartitionedCall/SmileFaceModel/tf_op_layer_strided_slice_10/strided_slice_10/strides", "op": "Const", "attr": {"dtype": {"type": "DT_INT32"}, "value": {"tensor": {"dtype": "DT_INT32", "tensorShape": {"dim": [{"size": "1"}]}}}}}, {"name": "StatefulPartitionedCall/SmileFaceModel/tf_op_layer_Range/Range/start", "op": "Const", "attr": {"dtype": {"type": "DT_FLOAT"}, "value": {"tensor": {"dtype": "DT_FLOAT", "tensorShape": {}}}}}, {"name": "StatefulPartitionedCall/SmileFaceModel/tf_op_layer_strided_slice_6/strided_slice_6/begin", "op": "Const", "attr": {"dtype": {"type": "DT_INT32"}, "value": {"tensor": {"dtype": "DT_INT32", "tensorShape": {"dim": [{"size": "1"}]}}}}}, {"name": "StatefulPartitionedCall/SmileFaceModel/tf_op_layer_strided_slice_6/strided_slice_6/end", "op": "Const", "attr": {"dtype": {"type": "DT_INT32"}, "value": {"tensor": {"dtype": "DT_INT32", "tensorShape": {"dim": [{"size": "1"}]}}}}}, {"name": "StatefulPartitionedCall/SmileFaceModel/tf_op_layer_strided_slice_6/strided_slice_6/strides", "op": "Const", "attr": {"dtype": {"type": "DT_INT32"}, "value": {"tensor": {"dtype": "DT_INT32", "tensorShape": {"dim": [{"size": "1"}]}}}}}, {"name": "StatefulPartitionedCall/SmileFaceModel/tf_op_layer_strided_slice_7/strided_slice_7/begin", "op": "Const", "attr": {"dtype": {"type": "DT_INT32"}, "value": {"tensor": {"dtype": "DT_INT32", "tensorShape": {"dim": [{"size": "1"}]}}}}}, {"name": "StatefulPartitionedCall/SmileFaceModel/tf_op_layer_strided_slice_7/strided_slice_7/end", "op": "Const", "attr": {"dtype": {"type": "DT_INT32"}, "value": {"tensor": {"dtype": "DT_INT32", "tensorShape": {"dim": [{"size": "1"}]}}}}}, {"name": "StatefulPartitionedCall/SmileFaceModel/tf_op_layer_strided_slice_7/strided_slice_7/strides", "op": "Const", "attr": {"dtype": {"type": "DT_INT32"}, "value": {"tensor": {"dtype": "DT_INT32", "tensorShape": {"dim": [{"size": "1"}]}}}}}, {"name": "StatefulPartitionedCall/SmileFaceModel/tf_op_layer_Range/Range/delta", "op": "Const", "attr": {"value": {"tensor": {"dtype": "DT_FLOAT", "tensorShape": {}}}, "dtype": {"type": "DT_FLOAT"}}}, {"name": "StatefulPartitionedCall/SmileFaceModel/tf_op_layer_strided_slice_11/strided_slice_11/begin", "op": "Const", "attr": {"dtype": {"type": "DT_INT32"}, "value": {"tensor": {"dtype": "DT_INT32", "tensorShape": {"dim": [{"size": "1"}]}}}}}, {"name": "StatefulPartitionedCall/SmileFaceModel/tf_op_layer_strided_slice_11/strided_slice_11/end", "op": "Const", "attr": {"value": {"tensor": {"dtype": "DT_INT32", "tensorShape": {"dim": [{"size": "1"}]}}}, "dtype": {"type": "DT_INT32"}}}, {"name": "StatefulPartitionedCall/SmileFaceModel/tf_op_layer_strided_slice_11/strided_slice_11/strides", "op": "Const", "attr": {"value": {"tensor": {"dtype": "DT_INT32", "tensorShape": {"dim": [{"size": "1"}]}}}, "dtype": {"type": "DT_INT32"}}}, {"name": "StatefulPartitionedCall/SmileFaceModel/tf_op_layer_strided_slice_21/strided_slice_21/begin", "op": "Const", "attr": {"dtype": {"type": "DT_INT32"}, "value": {"tensor": {"dtype": "DT_INT32", "tensorShape": {"dim": [{"size": "1"}]}}}}}, {"name": "StatefulPartitionedCall/SmileFaceModel/tf_op_layer_strided_slice_21/strided_slice_21/end", "op": "Const", "attr": {"value": {"tensor": {"dtype": "DT_INT32", "tensorShape": {"dim": [{"size": "1"}]}}}, "dtype": {"type": "DT_INT32"}}}, {"name": "StatefulPartitionedCall/SmileFaceModel/tf_op_layer_strided_slice_21/strided_slice_21/strides", "op": "Const", "attr": {"value": {"tensor": {"dtype": "DT_INT32", "tensorShape": {"dim": [{"size": "1"}]}}}, "dtype": {"type": "DT_INT32"}}}, {"name": "StatefulPartitionedCall/SmileFaceModel/tf_op_layer_Tile_1/multiples/Tile_1/multiples/2", "op": "Const", "attr": {"dtype": {"type": "DT_INT32"}, "value": {"tensor": {"dtype": "DT_INT32", "tensorShape": {}}}}}, {"name": "StatefulPartitionedCall/SmileFaceModel/tf_op_layer_Tile_1/multiples/Tile_1/multiples/3", "op": "Const", "attr": {"dtype": {"type": "DT_INT32"}, "value": {"tensor": {"dtype": "DT_INT32", "tensorShape": {}}}}}, {"name": "StatefulPartitionedCall/SmileFaceModel/tf_op_layer_Reshape_7/Reshape_7/shape", "op": "Const", "attr": {"dtype": {"type": "DT_INT32"}, "value": {"tensor": {"dtype": "DT_INT32", "tensorShape": {"dim": [{"size": "2"}]}}}}}, {"name": "StatefulPartitionedCall/SmileFaceModel/tf_op_layer_concat_7/concat_7/axis", "op": "Const", "attr": {"dtype": {"type": "DT_INT32"}, "value": {"tensor": {"dtype": "DT_INT32", "tensorShape": {}}}}}, {"name": "StatefulPartitionedCall/SmileFaceModel/tf_op_layer_ExpandDims_3/ExpandDims_3/dim", "op": "Const", "attr": {"dtype": {"type": "DT_INT32"}, "value": {"tensor": {"dtype": "DT_INT32", "tensorShape": {}}}}}, {"name": "StatefulPartitionedCall/SmileFaceModel/tf_op_layer_Tile_2/Tile_2/multiples", "op": "Const", "attr": {"value": {"tensor": {"dtype": "DT_INT32", "tensorShape": {"dim": [{"size": "3"}]}}}, "dtype": {"type": "DT_INT32"}}}, {"name": "StatefulPartitionedCall/SmileFaceModel/tf_op_layer_strided_slice_33/strided_slice_33/begin", "op": "Const", "attr": {"value": {"tensor": {"dtype": "DT_INT32", "tensorShape": {"dim": [{"size": "1"}]}}}, "dtype": {"type": "DT_INT32"}}}, {"name": "StatefulPartitionedCall/SmileFaceModel/tf_op_layer_strided_slice_33/strided_slice_33/end", "op": "Const", "attr": {"value": {"tensor": {"dtype": "DT_INT32", "tensorShape": {"dim": [{"size": "1"}]}}}, "dtype": {"type": "DT_INT32"}}}, {"name": "StatefulPartitionedCall/SmileFaceModel/tf_op_layer_strided_slice_33/strided_slice_33/strides", "op": "Const", "attr": {"dtype": {"type": "DT_INT32"}, "value": {"tensor": {"dtype": "DT_INT32", "tensorShape": {"dim": [{"size": "1"}]}}}}}, {"name": "StatefulPartitionedCall/SmileFaceModel/tf_op_layer_Mul_7/Tile_2/multiples/values_1", "op": "Const", "attr": {"value": {"tensor": {"dtype": "DT_INT32", "tensorShape": {}}}, "dtype": {"type": "DT_INT32"}}}, {"name": "StatefulPartitionedCall/SmileFaceModel/tf_op_layer_strided_slice_34/strided_slice_34/begin", "op": "Const", "attr": {"dtype": {"type": "DT_INT32"}, "value": {"tensor": {"dtype": "DT_INT32", "tensorShape": {"dim": [{"size": "1"}]}}}}}, {"name": "StatefulPartitionedCall/SmileFaceModel/tf_op_layer_strided_slice_34/strided_slice_34/end", "op": "Const", "attr": {"value": {"tensor": {"dtype": "DT_INT32", "tensorShape": {"dim": [{"size": "1"}]}}}, "dtype": {"type": "DT_INT32"}}}, {"name": "StatefulPartitionedCall/SmileFaceModel/tf_op_layer_strided_slice_34/strided_slice_34/strides", "op": "Const", "attr": {"value": {"tensor": {"dtype": "DT_INT32", "tensorShape": {"dim": [{"size": "1"}]}}}, "dtype": {"type": "DT_INT32"}}}, {"name": "StatefulPartitionedCall/SmileFaceModel/tf_op_layer_AddV2_2/AddV2_2/y", "op": "Const", "attr": {"value": {"tensor": {"dtype": "DT_FLOAT", "tensorShape": {}}}, "dtype": {"type": "DT_FLOAT"}}}, {"name": "StatefulPartitionedCall/SmileFaceModel/tf_op_layer_Mul_5/Mul_5/y", "op": "Const", "attr": {"dtype": {"type": "DT_FLOAT"}, "value": {"tensor": {"dtype": "DT_FLOAT", "tensorShape": {}}}}}, {"name": "StatefulPartitionedCall/SmileFaceModel/tf_op_layer_strided_slice_31/strided_slice_31/begin", "op": "Const", "attr": {"value": {"tensor": {"dtype": "DT_INT32", "tensorShape": {"dim": [{"size": "1"}]}}}, "dtype": {"type": "DT_INT32"}}}, {"name": "StatefulPartitionedCall/SmileFaceModel/tf_op_layer_strided_slice_31/strided_slice_31/end", "op": "Const", "attr": {"dtype": {"type": "DT_INT32"}, "value": {"tensor": {"dtype": "DT_INT32", "tensorShape": {"dim": [{"size": "1"}]}}}}}, {"name": "StatefulPartitionedCall/SmileFaceModel/tf_op_layer_strided_slice_31/strided_slice_31/strides", "op": "Const", "attr": {"dtype": {"type": "DT_INT32"}, "value": {"tensor": {"dtype": "DT_INT32", "tensorShape": {"dim": [{"size": "1"}]}}}}}, {"name": "StatefulPartitionedCall/SmileFaceModel/tf_op_layer_Reshape_9/Reshape_9/shape", "op": "Const", "attr": {"value": {"tensor": {"dtype": "DT_INT32", "tensorShape": {"dim": [{"size": "2"}]}}}, "dtype": {"type": "DT_INT32"}}}, {"name": "StatefulPartitionedCall/SmileFaceModel/tf_op_layer_AddV2_3/AddV2_3/y", "op": "Const", "attr": {"dtype": {"type": "DT_FLOAT"}, "value": {"tensor": {"dtype": "DT_FLOAT", "tensorShape": {}}}}}, {"name": "StatefulPartitionedCall/SmileFaceModel/tf_op_layer_Mul_6/Mul_6/y", "op": "Const", "attr": {"dtype": {"type": "DT_FLOAT"}, "value": {"tensor": {"dtype": "DT_FLOAT", "tensorShape": {}}}}}, {"name": "StatefulPartitionedCall/SmileFaceModel/tf_op_layer_strided_slice_32/strided_slice_32/begin", "op": "Const", "attr": {"dtype": {"type": "DT_INT32"}, "value": {"tensor": {"dtype": "DT_INT32", "tensorShape": {"dim": [{"size": "1"}]}}}}}, {"name": "StatefulPartitionedCall/SmileFaceModel/tf_op_layer_strided_slice_32/strided_slice_32/end", "op": "Const", "attr": {"dtype": {"type": "DT_INT32"}, "value": {"tensor": {"dtype": "DT_INT32", "tensorShape": {"dim": [{"size": "1"}]}}}}}, {"name": "StatefulPartitionedCall/SmileFaceModel/tf_op_layer_strided_slice_32/strided_slice_32/strides", "op": "Const", "attr": {"value": {"tensor": {"dtype": "DT_INT32", "tensorShape": {"dim": [{"size": "1"}]}}}, "dtype": {"type": "DT_INT32"}}}, {"name": "StatefulPartitionedCall/SmileFaceModel/tf_op_layer_Reshape_10/Reshape_10/shape", "op": "Const", "attr": {"value": {"tensor": {"dtype": "DT_INT32", "tensorShape": {"dim": [{"size": "2"}]}}}, "dtype": {"type": "DT_INT32"}}}, {"name": "StatefulPartitionedCall/SmileFaceModel/tf_op_layer_strided_slice_35/strided_slice_35/begin", "op": "Const", "attr": {"value": {"tensor": {"dtype": "DT_INT32", "tensorShape": {"dim": [{"size": "1"}]}}}, "dtype": {"type": "DT_INT32"}}}, {"name": "StatefulPartitionedCall/SmileFaceModel/tf_op_layer_strided_slice_35/strided_slice_35/end", "op": "Const", "attr": {"value": {"tensor": {"dtype": "DT_INT32", "tensorShape": {"dim": [{"size": "1"}]}}}, "dtype": {"type": "DT_INT32"}}}, {"name": "StatefulPartitionedCall/SmileFaceModel/tf_op_layer_strided_slice_35/strided_slice_35/strides", "op": "Const", "attr": {"value": {"tensor": {"dtype": "DT_INT32", "tensorShape": {"dim": [{"size": "1"}]}}}, "dtype": {"type": "DT_INT32"}}}, {"name": "StatefulPartitionedCall/SmileFaceModel/tf_op_layer_concat_8/concat_8/axis", "op": "Const", "attr": {"value": {"tensor": {"dtype": "DT_INT32", "tensorShape": {}}}, "dtype": {"type": "DT_INT32"}}}, {"name": "StatefulPartitionedCall/SmileFaceModel/tf_op_layer_RealDiv_8/RealDiv_8/x", "op": "Const", "attr": {"dtype": {"type": "DT_FLOAT"}, "value": {"tensor": {"dtype": "DT_FLOAT", "tensorShape": {"dim": [{"size": "2"}]}}}}}, {"name": "StatefulPartitionedCall/SmileFaceModel/tf_op_layer_strided_slice_36/strided_slice_36/begin", "op": "Const", "attr": {"dtype": {"type": "DT_INT32"}, "value": {"tensor": {"dtype": "DT_INT32", "tensorShape": {"dim": [{"size": "1"}]}}}}}, {"name": "StatefulPartitionedCall/SmileFaceModel/tf_op_layer_strided_slice_36/strided_slice_36/end", "op": "Const", "attr": {"value": {"tensor": {"dtype": "DT_INT32", "tensorShape": {"dim": [{"size": "1"}]}}}, "dtype": {"type": "DT_INT32"}}}, {"name": "StatefulPartitionedCall/SmileFaceModel/tf_op_layer_strided_slice_36/strided_slice_36/strides", "op": "Const", "attr": {"value": {"tensor": {"dtype": "DT_INT32", "tensorShape": {"dim": [{"size": "1"}]}}}, "dtype": {"type": "DT_INT32"}}}, {"name": "StatefulPartitionedCall/SmileFaceModel/tf_op_layer_RealDiv_9/RealDiv_9/x", "op": "Const", "attr": {"dtype": {"type": "DT_FLOAT"}, "value": {"tensor": {"dtype": "DT_FLOAT", "tensorShape": {"dim": [{"size": "2"}]}}}}}, {"name": "StatefulPartitionedCall/SmileFaceModel/tf_op_layer_strided_slice_37/strided_slice_37/begin", "op": "Const", "attr": {"value": {"tensor": {"dtype": "DT_INT32", "tensorShape": {"dim": [{"size": "1"}]}}}, "dtype": {"type": "DT_INT32"}}}, {"name": "StatefulPartitionedCall/SmileFaceModel/tf_op_layer_strided_slice_37/strided_slice_37/end", "op": "Const", "attr": {"dtype": {"type": "DT_INT32"}, "value": {"tensor": {"dtype": "DT_INT32", "tensorShape": {"dim": [{"size": "1"}]}}}}}, {"name": "StatefulPartitionedCall/SmileFaceModel/tf_op_layer_strided_slice_37/strided_slice_37/strides", "op": "Const", "attr": {"dtype": {"type": "DT_INT32"}, "value": {"tensor": {"dtype": "DT_INT32", "tensorShape": {"dim": [{"size": "1"}]}}}}}, {"name": "StatefulPartitionedCall/SmileFaceModel/tf_op_layer_strided_slice_38/strided_slice_38/begin", "op": "Const", "attr": {"dtype": {"type": "DT_INT32"}, "value": {"tensor": {"dtype": "DT_INT32", "tensorShape": {"dim": [{"size": "1"}]}}}}}, {"name": "StatefulPartitionedCall/SmileFaceModel/tf_op_layer_strided_slice_38/strided_slice_38/end", "op": "Const", "attr": {"dtype": {"type": "DT_INT32"}, "value": {"tensor": {"dtype": "DT_INT32", "tensorShape": {"dim": [{"size": "1"}]}}}}}, {"name": "StatefulPartitionedCall/SmileFaceModel/tf_op_layer_strided_slice_38/strided_slice_38/strides", "op": "Const", "attr": {"dtype": {"type": "DT_INT32"}, "value": {"tensor": {"dtype": "DT_INT32", "tensorShape": {"dim": [{"size": "1"}]}}}}}, {"name": "StatefulPartitionedCall/SmileFaceModel/tf_op_layer_ExpandDims_4/ExpandDims_4/dim", "op": "Const", "attr": {"dtype": {"type": "DT_INT32"}, "value": {"tensor": {"dtype": "DT_INT32", "tensorShape": {}}}}}, {"name": "StatefulPartitionedCall/SmileFaceModel/tf_op_layer_Tile_3/multiples/Tile_3/multiples/0", "op": "Const", "attr": {"dtype": {"type": "DT_INT32"}, "value": {"tensor": {"dtype": "DT_INT32", "tensorShape": {}}}}}, {"name": "StatefulPartitionedCall/SmileFaceModel/tf_op_layer_strided_slice_39/strided_slice_39/begin", "op": "Const", "attr": {"dtype": {"type": "DT_INT32"}, "value": {"tensor": {"dtype": "DT_INT32", "tensorShape": {"dim": [{"size": "1"}]}}}}}, {"name": "StatefulPartitionedCall/SmileFaceModel/tf_op_layer_strided_slice_39/strided_slice_39/end", "op": "Const", "attr": {"dtype": {"type": "DT_INT32"}, "value": {"tensor": {"dtype": "DT_INT32", "tensorShape": {"dim": [{"size": "1"}]}}}}}, {"name": "StatefulPartitionedCall/SmileFaceModel/tf_op_layer_strided_slice_39/strided_slice_39/strides", "op": "Const", "attr": {"value": {"tensor": {"dtype": "DT_INT32", "tensorShape": {"dim": [{"size": "1"}]}}}, "dtype": {"type": "DT_INT32"}}}, {"name": "StatefulPartitionedCall/SmileFaceModel/tf_op_layer_Reshape_8/Reshape_8/shape", "op": "Const", "attr": {"value": {"tensor": {"dtype": "DT_INT32", "tensorShape": {"dim": [{"size": "2"}]}}}, "dtype": {"type": "DT_INT32"}}}, {"name": "StatefulPartitionedCall/SmileFaceModel/tf_op_layer_Range_3/Range_3/start", "op": "Const", "attr": {"value": {"tensor": {"dtype": "DT_FLOAT", "tensorShape": {}}}, "dtype": {"type": "DT_FLOAT"}}}, {"name": "StatefulPartitionedCall/SmileFaceModel/tf_op_layer_strided_slice_27/strided_slice_27/begin", "op": "Const", "attr": {"value": {"tensor": {"dtype": "DT_INT32", "tensorShape": {"dim": [{"size": "1"}]}}}, "dtype": {"type": "DT_INT32"}}}, {"name": "StatefulPartitionedCall/SmileFaceModel/tf_op_layer_strided_slice_27/strided_slice_27/end", "op": "Const", "attr": {"dtype": {"type": "DT_INT32"}, "value": {"tensor": {"dtype": "DT_INT32", "tensorShape": {"dim": [{"size": "1"}]}}}}}, {"name": "StatefulPartitionedCall/SmileFaceModel/tf_op_layer_strided_slice_27/strided_slice_27/strides", "op": "Const", "attr": {"value": {"tensor": {"dtype": "DT_INT32", "tensorShape": {"dim": [{"size": "1"}]}}}, "dtype": {"type": "DT_INT32"}}}, {"name": "StatefulPartitionedCall/SmileFaceModel/tf_op_layer_strided_slice_28/strided_slice_28/begin", "op": "Const", "attr": {"dtype": {"type": "DT_INT32"}, "value": {"tensor": {"dtype": "DT_INT32", "tensorShape": {"dim": [{"size": "1"}]}}}}}, {"name": "StatefulPartitionedCall/SmileFaceModel/tf_op_layer_strided_slice_28/strided_slice_28/end", "op": "Const", "attr": {"dtype": {"type": "DT_INT32"}, "value": {"tensor": {"dtype": "DT_INT32", "tensorShape": {"dim": [{"size": "1"}]}}}}}, {"name": "StatefulPartitionedCall/SmileFaceModel/tf_op_layer_strided_slice_28/strided_slice_28/strides", "op": "Const", "attr": {"value": {"tensor": {"dtype": "DT_INT32", "tensorShape": {"dim": [{"size": "1"}]}}}, "dtype": {"type": "DT_INT32"}}}, {"name": "StatefulPartitionedCall/SmileFaceModel/tf_op_layer_Range_3/Range_3/delta", "op": "Const", "attr": {"dtype": {"type": "DT_FLOAT"}, "value": {"tensor": {"dtype": "DT_FLOAT", "tensorShape": {}}}}}, {"name": "StatefulPartitionedCall/SmileFaceModel/tf_op_layer_strided_slice_29/strided_slice_29/begin", "op": "Const", "attr": {"value": {"tensor": {"dtype": "DT_INT32", "tensorShape": {"dim": [{"size": "1"}]}}}, "dtype": {"type": "DT_INT32"}}}, {"name": "StatefulPartitionedCall/SmileFaceModel/tf_op_layer_strided_slice_29/strided_slice_29/end", "op": "Const", "attr": {"dtype": {"type": "DT_INT32"}, "value": {"tensor": {"dtype": "DT_INT32", "tensorShape": {"dim": [{"size": "1"}]}}}}}, {"name": "StatefulPartitionedCall/SmileFaceModel/tf_op_layer_strided_slice_29/strided_slice_29/strides", "op": "Const", "attr": {"dtype": {"type": "DT_INT32"}, "value": {"tensor": {"dtype": "DT_INT32", "tensorShape": {"dim": [{"size": "1"}]}}}}}, {"name": "StatefulPartitionedCall/SmileFaceModel/tf_op_layer_Range_2/Range_2/start", "op": "Const", "attr": {"dtype": {"type": "DT_FLOAT"}, "value": {"tensor": {"dtype": "DT_FLOAT", "tensorShape": {}}}}}, {"name": "StatefulPartitionedCall/SmileFaceModel/tf_op_layer_strided_slice_25/strided_slice_25/begin", "op": "Const", "attr": {"value": {"tensor": {"dtype": "DT_INT32", "tensorShape": {"dim": [{"size": "1"}]}}}, "dtype": {"type": "DT_INT32"}}}, {"name": "StatefulPartitionedCall/SmileFaceModel/tf_op_layer_strided_slice_25/strided_slice_25/end", "op": "Const", "attr": {"value": {"tensor": {"dtype": "DT_INT32", "tensorShape": {"dim": [{"size": "1"}]}}}, "dtype": {"type": "DT_INT32"}}}, {"name": "StatefulPartitionedCall/SmileFaceModel/tf_op_layer_strided_slice_25/strided_slice_25/strides", "op": "Const", "attr": {"dtype": {"type": "DT_INT32"}, "value": {"tensor": {"dtype": "DT_INT32", "tensorShape": {"dim": [{"size": "1"}]}}}}}, {"name": "StatefulPartitionedCall/SmileFaceModel/tf_op_layer_strided_slice_26/strided_slice_26/begin", "op": "Const", "attr": {"value": {"tensor": {"dtype": "DT_INT32", "tensorShape": {"dim": [{"size": "1"}]}}}, "dtype": {"type": "DT_INT32"}}}, {"name": "StatefulPartitionedCall/SmileFaceModel/tf_op_layer_strided_slice_26/strided_slice_26/end", "op": "Const", "attr": {"dtype": {"type": "DT_INT32"}, "value": {"tensor": {"dtype": "DT_INT32", "tensorShape": {"dim": [{"size": "1"}]}}}}}, {"name": "StatefulPartitionedCall/SmileFaceModel/tf_op_layer_strided_slice_26/strided_slice_26/strides", "op": "Const", "attr": {"dtype": {"type": "DT_INT32"}, "value": {"tensor": {"dtype": "DT_INT32", "tensorShape": {"dim": [{"size": "1"}]}}}}}, {"name": "StatefulPartitionedCall/SmileFaceModel/tf_op_layer_Range_2/Range_2/delta", "op": "Const", "attr": {"value": {"tensor": {"dtype": "DT_FLOAT", "tensorShape": {}}}, "dtype": {"type": "DT_FLOAT"}}}, {"name": "StatefulPartitionedCall/SmileFaceModel/tf_op_layer_strided_slice_30/strided_slice_30/begin", "op": "Const", "attr": {"value": {"tensor": {"dtype": "DT_INT32", "tensorShape": {"dim": [{"size": "1"}]}}}, "dtype": {"type": "DT_INT32"}}}, {"name": "StatefulPartitionedCall/SmileFaceModel/tf_op_layer_strided_slice_30/strided_slice_30/end", "op": "Const", "attr": {"value": {"tensor": {"dtype": "DT_INT32", "tensorShape": {"dim": [{"size": "1"}]}}}, "dtype": {"type": "DT_INT32"}}}, {"name": "StatefulPartitionedCall/SmileFaceModel/tf_op_layer_strided_slice_30/strided_slice_30/strides", "op": "Const", "attr": {"dtype": {"type": "DT_INT32"}, "value": {"tensor": {"dtype": "DT_INT32", "tensorShape": {"dim": [{"size": "1"}]}}}}}, {"name": "StatefulPartitionedCall/SmileFaceModel/tf_op_layer_strided_slice_40/strided_slice_40/begin", "op": "Const", "attr": {"dtype": {"type": "DT_INT32"}, "value": {"tensor": {"dtype": "DT_INT32", "tensorShape": {"dim": [{"size": "1"}]}}}}}, {"name": "StatefulPartitionedCall/SmileFaceModel/tf_op_layer_strided_slice_40/strided_slice_40/end", "op": "Const", "attr": {"value": {"tensor": {"dtype": "DT_INT32", "tensorShape": {"dim": [{"size": "1"}]}}}, "dtype": {"type": "DT_INT32"}}}, {"name": "StatefulPartitionedCall/SmileFaceModel/tf_op_layer_strided_slice_40/strided_slice_40/strides", "op": "Const", "attr": {"value": {"tensor": {"dtype": "DT_INT32", "tensorShape": {"dim": [{"size": "1"}]}}}, "dtype": {"type": "DT_INT32"}}}, {"name": "StatefulPartitionedCall/SmileFaceModel/tf_op_layer_Tile_3/multiples/Tile_3/multiples/2", "op": "Const", "attr": {"dtype": {"type": "DT_INT32"}, "value": {"tensor": {"dtype": "DT_INT32", "tensorShape": {}}}}}, {"name": "StatefulPartitionedCall/SmileFaceModel/tf_op_layer_Tile_3/multiples/Tile_3/multiples/3", "op": "Const", "attr": {"dtype": {"type": "DT_INT32"}, "value": {"tensor": {"dtype": "DT_INT32", "tensorShape": {}}}}}, {"name": "StatefulPartitionedCall/SmileFaceModel/tf_op_layer_Reshape_14/Reshape_14/shape", "op": "Const", "attr": {"dtype": {"type": "DT_INT32"}, "value": {"tensor": {"dtype": "DT_INT32", "tensorShape": {"dim": [{"size": "2"}]}}}}}, {"name": "StatefulPartitionedCall/SmileFaceModel/tf_op_layer_concat_10/concat_10/axis", "op": "Const", "attr": {"dtype": {"type": "DT_INT32"}, "value": {"tensor": {"dtype": "DT_INT32", "tensorShape": {}}}}}, {"name": "StatefulPartitionedCall/SmileFaceModel/tf_op_layer_ExpandDims_5/ExpandDims_5/dim", "op": "Const", "attr": {"dtype": {"type": "DT_INT32"}, "value": {"tensor": {"dtype": "DT_INT32", "tensorShape": {}}}}}, {"name": "StatefulPartitionedCall/SmileFaceModel/tf_op_layer_Tile_4/Tile_4/multiples", "op": "Const", "attr": {"dtype": {"type": "DT_INT32"}, "value": {"tensor": {"dtype": "DT_INT32", "tensorShape": {"dim": [{"size": "3"}]}}}}}, {"name": "StatefulPartitionedCall/SmileFaceModel/tf_op_layer_strided_slice_52/strided_slice_52/begin", "op": "Const", "attr": {"value": {"tensor": {"dtype": "DT_INT32", "tensorShape": {"dim": [{"size": "1"}]}}}, "dtype": {"type": "DT_INT32"}}}, {"name": "StatefulPartitionedCall/SmileFaceModel/tf_op_layer_strided_slice_52/strided_slice_52/end", "op": "Const", "attr": {"dtype": {"type": "DT_INT32"}, "value": {"tensor": {"dtype": "DT_INT32", "tensorShape": {"dim": [{"size": "1"}]}}}}}, {"name": "StatefulPartitionedCall/SmileFaceModel/tf_op_layer_strided_slice_52/strided_slice_52/strides", "op": "Const", "attr": {"value": {"tensor": {"dtype": "DT_INT32", "tensorShape": {"dim": [{"size": "1"}]}}}, "dtype": {"type": "DT_INT32"}}}, {"name": "StatefulPartitionedCall/SmileFaceModel/tf_op_layer_Mul_12/Tile_4/multiples/values_1", "op": "Const", "attr": {"value": {"tensor": {"dtype": "DT_INT32", "tensorShape": {}}}, "dtype": {"type": "DT_INT32"}}}, {"name": "StatefulPartitionedCall/SmileFaceModel/tf_op_layer_strided_slice_53/strided_slice_53/begin", "op": "Const", "attr": {"dtype": {"type": "DT_INT32"}, "value": {"tensor": {"dtype": "DT_INT32", "tensorShape": {"dim": [{"size": "1"}]}}}}}, {"name": "StatefulPartitionedCall/SmileFaceModel/tf_op_layer_strided_slice_53/strided_slice_53/end", "op": "Const", "attr": {"value": {"tensor": {"dtype": "DT_INT32", "tensorShape": {"dim": [{"size": "1"}]}}}, "dtype": {"type": "DT_INT32"}}}, {"name": "StatefulPartitionedCall/SmileFaceModel/tf_op_layer_strided_slice_53/strided_slice_53/strides", "op": "Const", "attr": {"value": {"tensor": {"dtype": "DT_INT32", "tensorShape": {"dim": [{"size": "1"}]}}}, "dtype": {"type": "DT_INT32"}}}, {"name": "StatefulPartitionedCall/SmileFaceModel/tf_op_layer_AddV2_4/AddV2_4/y", "op": "Const", "attr": {"value": {"tensor": {"dtype": "DT_FLOAT", "tensorShape": {}}}, "dtype": {"type": "DT_FLOAT"}}}, {"name": "StatefulPartitionedCall/SmileFaceModel/tf_op_layer_Mul_10/Mul_10/y", "op": "Const", "attr": {"dtype": {"type": "DT_FLOAT"}, "value": {"tensor": {"dtype": "DT_FLOAT", "tensorShape": {}}}}}, {"name": "StatefulPartitionedCall/SmileFaceModel/tf_op_layer_strided_slice_50/strided_slice_50/begin", "op": "Const", "attr": {"dtype": {"type": "DT_INT32"}, "value": {"tensor": {"dtype": "DT_INT32", "tensorShape": {"dim": [{"size": "1"}]}}}}}, {"name": "StatefulPartitionedCall/SmileFaceModel/tf_op_layer_strided_slice_50/strided_slice_50/end", "op": "Const", "attr": {"dtype": {"type": "DT_INT32"}, "value": {"tensor": {"dtype": "DT_INT32", "tensorShape": {"dim": [{"size": "1"}]}}}}}, {"name": "StatefulPartitionedCall/SmileFaceModel/tf_op_layer_strided_slice_50/strided_slice_50/strides", "op": "Const", "attr": {"dtype": {"type": "DT_INT32"}, "value": {"tensor": {"dtype": "DT_INT32", "tensorShape": {"dim": [{"size": "1"}]}}}}}, {"name": "StatefulPartitionedCall/SmileFaceModel/tf_op_layer_Reshape_16/Reshape_16/shape", "op": "Const", "attr": {"value": {"tensor": {"dtype": "DT_INT32", "tensorShape": {"dim": [{"size": "2"}]}}}, "dtype": {"type": "DT_INT32"}}}, {"name": "StatefulPartitionedCall/SmileFaceModel/tf_op_layer_AddV2_5/AddV2_5/y", "op": "Const", "attr": {"value": {"tensor": {"dtype": "DT_FLOAT", "tensorShape": {}}}, "dtype": {"type": "DT_FLOAT"}}}, {"name": "StatefulPartitionedCall/SmileFaceModel/tf_op_layer_Mul_11/Mul_11/y", "op": "Const", "attr": {"value": {"tensor": {"dtype": "DT_FLOAT", "tensorShape": {}}}, "dtype": {"type": "DT_FLOAT"}}}, {"name": "StatefulPartitionedCall/SmileFaceModel/tf_op_layer_strided_slice_51/strided_slice_51/begin", "op": "Const", "attr": {"value": {"tensor": {"dtype": "DT_INT32", "tensorShape": {"dim": [{"size": "1"}]}}}, "dtype": {"type": "DT_INT32"}}}, {"name": "StatefulPartitionedCall/SmileFaceModel/tf_op_layer_strided_slice_51/strided_slice_51/end", "op": "Const", "attr": {"dtype": {"type": "DT_INT32"}, "value": {"tensor": {"dtype": "DT_INT32", "tensorShape": {"dim": [{"size": "1"}]}}}}}, {"name": "StatefulPartitionedCall/SmileFaceModel/tf_op_layer_strided_slice_51/strided_slice_51/strides", "op": "Const", "attr": {"value": {"tensor": {"dtype": "DT_INT32", "tensorShape": {"dim": [{"size": "1"}]}}}, "dtype": {"type": "DT_INT32"}}}, {"name": "StatefulPartitionedCall/SmileFaceModel/tf_op_layer_Reshape_17/Reshape_17/shape", "op": "Const", "attr": {"dtype": {"type": "DT_INT32"}, "value": {"tensor": {"dtype": "DT_INT32", "tensorShape": {"dim": [{"size": "2"}]}}}}}, {"name": "StatefulPartitionedCall/SmileFaceModel/tf_op_layer_strided_slice_54/strided_slice_54/begin", "op": "Const", "attr": {"dtype": {"type": "DT_INT32"}, "value": {"tensor": {"dtype": "DT_INT32", "tensorShape": {"dim": [{"size": "1"}]}}}}}, {"name": "StatefulPartitionedCall/SmileFaceModel/tf_op_layer_strided_slice_54/strided_slice_54/end", "op": "Const", "attr": {"value": {"tensor": {"dtype": "DT_INT32", "tensorShape": {"dim": [{"size": "1"}]}}}, "dtype": {"type": "DT_INT32"}}}, {"name": "StatefulPartitionedCall/SmileFaceModel/tf_op_layer_strided_slice_54/strided_slice_54/strides", "op": "Const", "attr": {"dtype": {"type": "DT_INT32"}, "value": {"tensor": {"dtype": "DT_INT32", "tensorShape": {"dim": [{"size": "1"}]}}}}}, {"name": "StatefulPartitionedCall/SmileFaceModel/tf_op_layer_concat_11/concat_11/axis", "op": "Const", "attr": {"dtype": {"type": "DT_INT32"}, "value": {"tensor": {"dtype": "DT_INT32", "tensorShape": {}}}}}, {"name": "StatefulPartitionedCall/SmileFaceModel/tf_op_layer_RealDiv_12/RealDiv_12/x", "op": "Const", "attr": {"value": {"tensor": {"dtype": "DT_FLOAT", "tensorShape": {"dim": [{"size": "2"}]}}}, "dtype": {"type": "DT_FLOAT"}}}, {"name": "StatefulPartitionedCall/SmileFaceModel/tf_op_layer_strided_slice_55/strided_slice_55/begin", "op": "Const", "attr": {"value": {"tensor": {"dtype": "DT_INT32", "tensorShape": {"dim": [{"size": "1"}]}}}, "dtype": {"type": "DT_INT32"}}}, {"name": "StatefulPartitionedCall/SmileFaceModel/tf_op_layer_strided_slice_55/strided_slice_55/end", "op": "Const", "attr": {"dtype": {"type": "DT_INT32"}, "value": {"tensor": {"dtype": "DT_INT32", "tensorShape": {"dim": [{"size": "1"}]}}}}}, {"name": "StatefulPartitionedCall/SmileFaceModel/tf_op_layer_strided_slice_55/strided_slice_55/strides", "op": "Const", "attr": {"value": {"tensor": {"dtype": "DT_INT32", "tensorShape": {"dim": [{"size": "1"}]}}}, "dtype": {"type": "DT_INT32"}}}, {"name": "StatefulPartitionedCall/SmileFaceModel/tf_op_layer_RealDiv_13/RealDiv_13/x", "op": "Const", "attr": {"dtype": {"type": "DT_FLOAT"}, "value": {"tensor": {"dtype": "DT_FLOAT", "tensorShape": {"dim": [{"size": "2"}]}}}}}, {"name": "StatefulPartitionedCall/SmileFaceModel/tf_op_layer_strided_slice_56/strided_slice_56/begin", "op": "Const", "attr": {"value": {"tensor": {"dtype": "DT_INT32", "tensorShape": {"dim": [{"size": "1"}]}}}, "dtype": {"type": "DT_INT32"}}}, {"name": "StatefulPartitionedCall/SmileFaceModel/tf_op_layer_strided_slice_56/strided_slice_56/end", "op": "Const", "attr": {"value": {"tensor": {"dtype": "DT_INT32", "tensorShape": {"dim": [{"size": "1"}]}}}, "dtype": {"type": "DT_INT32"}}}, {"name": "StatefulPartitionedCall/SmileFaceModel/tf_op_layer_strided_slice_56/strided_slice_56/strides", "op": "Const", "attr": {"dtype": {"type": "DT_INT32"}, "value": {"tensor": {"dtype": "DT_INT32", "tensorShape": {"dim": [{"size": "1"}]}}}}}, {"name": "StatefulPartitionedCall/SmileFaceModel/tf_op_layer_strided_slice_57/strided_slice_57/begin", "op": "Const", "attr": {"dtype": {"type": "DT_INT32"}, "value": {"tensor": {"dtype": "DT_INT32", "tensorShape": {"dim": [{"size": "1"}]}}}}}, {"name": "StatefulPartitionedCall/SmileFaceModel/tf_op_layer_strided_slice_57/strided_slice_57/end", "op": "Const", "attr": {"value": {"tensor": {"dtype": "DT_INT32", "tensorShape": {"dim": [{"size": "1"}]}}}, "dtype": {"type": "DT_INT32"}}}, {"name": "StatefulPartitionedCall/SmileFaceModel/tf_op_layer_strided_slice_57/strided_slice_57/strides", "op": "Const", "attr": {"value": {"tensor": {"dtype": "DT_INT32", "tensorShape": {"dim": [{"size": "1"}]}}}, "dtype": {"type": "DT_INT32"}}}, {"name": "StatefulPartitionedCall/SmileFaceModel/tf_op_layer_ExpandDims_6/ExpandDims_6/dim", "op": "Const", "attr": {"dtype": {"type": "DT_INT32"}, "value": {"tensor": {"dtype": "DT_INT32", "tensorShape": {}}}}}, {"name": "StatefulPartitionedCall/SmileFaceModel/tf_op_layer_Tile_5/multiples/Tile_5/multiples/0", "op": "Const", "attr": {"dtype": {"type": "DT_INT32"}, "value": {"tensor": {"dtype": "DT_INT32", "tensorShape": {}}}}}, {"name": "StatefulPartitionedCall/SmileFaceModel/tf_op_layer_strided_slice_58/strided_slice_58/begin", "op": "Const", "attr": {"value": {"tensor": {"dtype": "DT_INT32", "tensorShape": {"dim": [{"size": "1"}]}}}, "dtype": {"type": "DT_INT32"}}}, {"name": "StatefulPartitionedCall/SmileFaceModel/tf_op_layer_strided_slice_58/strided_slice_58/end", "op": "Const", "attr": {"value": {"tensor": {"dtype": "DT_INT32", "tensorShape": {"dim": [{"size": "1"}]}}}, "dtype": {"type": "DT_INT32"}}}, {"name": "StatefulPartitionedCall/SmileFaceModel/tf_op_layer_strided_slice_58/strided_slice_58/strides", "op": "Const", "attr": {"dtype": {"type": "DT_INT32"}, "value": {"tensor": {"dtype": "DT_INT32", "tensorShape": {"dim": [{"size": "1"}]}}}}}, {"name": "StatefulPartitionedCall/SmileFaceModel/tf_op_layer_Reshape_15/Reshape_15/shape", "op": "Const", "attr": {"dtype": {"type": "DT_INT32"}, "value": {"tensor": {"dtype": "DT_INT32", "tensorShape": {"dim": [{"size": "2"}]}}}}}, {"name": "StatefulPartitionedCall/SmileFaceModel/tf_op_layer_Range_5/Range_5/start", "op": "Const", "attr": {"value": {"tensor": {"dtype": "DT_FLOAT", "tensorShape": {}}}, "dtype": {"type": "DT_FLOAT"}}}, {"name": "StatefulPartitionedCall/SmileFaceModel/tf_op_layer_strided_slice_46/strided_slice_46/begin", "op": "Const", "attr": {"value": {"tensor": {"dtype": "DT_INT32", "tensorShape": {"dim": [{"size": "1"}]}}}, "dtype": {"type": "DT_INT32"}}}, {"name": "StatefulPartitionedCall/SmileFaceModel/tf_op_layer_strided_slice_46/strided_slice_46/end", "op": "Const", "attr": {"value": {"tensor": {"dtype": "DT_INT32", "tensorShape": {"dim": [{"size": "1"}]}}}, "dtype": {"type": "DT_INT32"}}}, {"name": "StatefulPartitionedCall/SmileFaceModel/tf_op_layer_strided_slice_46/strided_slice_46/strides", "op": "Const", "attr": {"value": {"tensor": {"dtype": "DT_INT32", "tensorShape": {"dim": [{"size": "1"}]}}}, "dtype": {"type": "DT_INT32"}}}, {"name": "StatefulPartitionedCall/SmileFaceModel/tf_op_layer_strided_slice_47/strided_slice_47/begin", "op": "Const", "attr": {"dtype": {"type": "DT_INT32"}, "value": {"tensor": {"dtype": "DT_INT32", "tensorShape": {"dim": [{"size": "1"}]}}}}}, {"name": "StatefulPartitionedCall/SmileFaceModel/tf_op_layer_strided_slice_47/strided_slice_47/end", "op": "Const", "attr": {"dtype": {"type": "DT_INT32"}, "value": {"tensor": {"dtype": "DT_INT32", "tensorShape": {"dim": [{"size": "1"}]}}}}}, {"name": "StatefulPartitionedCall/SmileFaceModel/tf_op_layer_strided_slice_47/strided_slice_47/strides", "op": "Const", "attr": {"value": {"tensor": {"dtype": "DT_INT32", "tensorShape": {"dim": [{"size": "1"}]}}}, "dtype": {"type": "DT_INT32"}}}, {"name": "StatefulPartitionedCall/SmileFaceModel/tf_op_layer_Range_5/Range_5/delta", "op": "Const", "attr": {"dtype": {"type": "DT_FLOAT"}, "value": {"tensor": {"dtype": "DT_FLOAT", "tensorShape": {}}}}}, {"name": "StatefulPartitionedCall/SmileFaceModel/tf_op_layer_strided_slice_48/strided_slice_48/begin", "op": "Const", "attr": {"value": {"tensor": {"dtype": "DT_INT32", "tensorShape": {"dim": [{"size": "1"}]}}}, "dtype": {"type": "DT_INT32"}}}, {"name": "StatefulPartitionedCall/SmileFaceModel/tf_op_layer_strided_slice_48/strided_slice_48/end", "op": "Const", "attr": {"dtype": {"type": "DT_INT32"}, "value": {"tensor": {"dtype": "DT_INT32", "tensorShape": {"dim": [{"size": "1"}]}}}}}, {"name": "StatefulPartitionedCall/SmileFaceModel/tf_op_layer_strided_slice_48/strided_slice_48/strides", "op": "Const", "attr": {"dtype": {"type": "DT_INT32"}, "value": {"tensor": {"dtype": "DT_INT32", "tensorShape": {"dim": [{"size": "1"}]}}}}}, {"name": "StatefulPartitionedCall/SmileFaceModel/tf_op_layer_Range_4/Range_4/start", "op": "Const", "attr": {"dtype": {"type": "DT_FLOAT"}, "value": {"tensor": {"dtype": "DT_FLOAT", "tensorShape": {}}}}}, {"name": "StatefulPartitionedCall/SmileFaceModel/tf_op_layer_strided_slice_4/strided_slice_4/begin", "op": "Const", "attr": {"dtype": {"type": "DT_INT32"}, "value": {"tensor": {"dtype": "DT_INT32", "tensorShape": {"dim": [{"size": "1"}]}}}}}, {"name": "StatefulPartitionedCall/SmileFaceModel/tf_op_layer_strided_slice_4/strided_slice_4/end", "op": "Const", "attr": {"value": {"tensor": {"dtype": "DT_INT32", "tensorShape": {"dim": [{"size": "1"}]}}}, "dtype": {"type": "DT_INT32"}}}, {"name": "StatefulPartitionedCall/SmileFaceModel/tf_op_layer_strided_slice_4/strided_slice_4/strides", "op": "Const", "attr": {"value": {"tensor": {"dtype": "DT_INT32", "tensorShape": {"dim": [{"size": "1"}]}}}, "dtype": {"type": "DT_INT32"}}}, {"name": "StatefulPartitionedCall/SmileFaceModel/tf_op_layer_strided_slice_5/strided_slice_5/begin", "op": "Const", "attr": {"value": {"tensor": {"dtype": "DT_INT32", "tensorShape": {"dim": [{"size": "1"}]}}}, "dtype": {"type": "DT_INT32"}}}, {"name": "StatefulPartitionedCall/SmileFaceModel/tf_op_layer_strided_slice_5/strided_slice_5/end", "op": "Const", "attr": {"value": {"tensor": {"dtype": "DT_INT32", "tensorShape": {"dim": [{"size": "1"}]}}}, "dtype": {"type": "DT_INT32"}}}, {"name": "StatefulPartitionedCall/SmileFaceModel/tf_op_layer_strided_slice_5/strided_slice_5/strides", "op": "Const", "attr": {"dtype": {"type": "DT_INT32"}, "value": {"tensor": {"dtype": "DT_INT32", "tensorShape": {"dim": [{"size": "1"}]}}}}}, {"name": "StatefulPartitionedCall/SmileFaceModel/tf_op_layer_Reshape/Reshape/shape", "op": "Const", "attr": {"value": {"tensor": {"dtype": "DT_INT32", "tensorShape": {"dim": [{"size": "2"}]}}}, "dtype": {"type": "DT_INT32"}}}, {"name": "ConstantFolding/StatefulPartitionedCall/SmileFaceModel/tf_op_layer_RealDiv_1/RealDiv_1_recip", "op": "Const", "attr": {"value": {"tensor": {"dtype": "DT_FLOAT", "tensorShape": {"dim": [{"size": "3"}, {"size": "1"}]}}}, "dtype": {"type": "DT_FLOAT"}}}, {"name": "StatefulPartitionedCall/SmileFaceModel/tf_op_layer_strided_slice_44/strided_slice_44/begin", "op": "Const", "attr": {"value": {"tensor": {"dtype": "DT_INT32", "tensorShape": {"dim": [{"size": "1"}]}}}, "dtype": {"type": "DT_INT32"}}}, {"name": "StatefulPartitionedCall/SmileFaceModel/tf_op_layer_strided_slice_44/strided_slice_44/end", "op": "Const", "attr": {"value": {"tensor": {"dtype": "DT_INT32", "tensorShape": {"dim": [{"size": "1"}]}}}, "dtype": {"type": "DT_INT32"}}}, {"name": "StatefulPartitionedCall/SmileFaceModel/tf_op_layer_strided_slice_44/strided_slice_44/strides", "op": "Const", "attr": {"dtype": {"type": "DT_INT32"}, "value": {"tensor": {"dtype": "DT_INT32", "tensorShape": {"dim": [{"size": "1"}]}}}}}, {"name": "StatefulPartitionedCall/SmileFaceModel/tf_op_layer_strided_slice_45/strided_slice_45/begin", "op": "Const", "attr": {"value": {"tensor": {"dtype": "DT_INT32", "tensorShape": {"dim": [{"size": "1"}]}}}, "dtype": {"type": "DT_INT32"}}}, {"name": "StatefulPartitionedCall/SmileFaceModel/tf_op_layer_strided_slice_45/strided_slice_45/end", "op": "Const", "attr": {"dtype": {"type": "DT_INT32"}, "value": {"tensor": {"dtype": "DT_INT32", "tensorShape": {"dim": [{"size": "1"}]}}}}}, {"name": "StatefulPartitionedCall/SmileFaceModel/tf_op_layer_strided_slice_45/strided_slice_45/strides", "op": "Const", "attr": {"dtype": {"type": "DT_INT32"}, "value": {"tensor": {"dtype": "DT_INT32", "tensorShape": {"dim": [{"size": "1"}]}}}}}, {"name": "StatefulPartitionedCall/SmileFaceModel/tf_op_layer_Range_4/Range_4/delta", "op": "Const", "attr": {"dtype": {"type": "DT_FLOAT"}, "value": {"tensor": {"dtype": "DT_FLOAT", "tensorShape": {}}}}}, {"name": "StatefulPartitionedCall/SmileFaceModel/tf_op_layer_strided_slice_49/strided_slice_49/begin", "op": "Const", "attr": {"dtype": {"type": "DT_INT32"}, "value": {"tensor": {"dtype": "DT_INT32", "tensorShape": {"dim": [{"size": "1"}]}}}}}, {"name": "StatefulPartitionedCall/SmileFaceModel/tf_op_layer_strided_slice_49/strided_slice_49/end", "op": "Const", "attr": {"dtype": {"type": "DT_INT32"}, "value": {"tensor": {"dtype": "DT_INT32", "tensorShape": {"dim": [{"size": "1"}]}}}}}, {"name": "StatefulPartitionedCall/SmileFaceModel/tf_op_layer_strided_slice_49/strided_slice_49/strides", "op": "Const", "attr": {"dtype": {"type": "DT_INT32"}, "value": {"tensor": {"dtype": "DT_INT32", "tensorShape": {"dim": [{"size": "1"}]}}}}}, {"name": "StatefulPartitionedCall/SmileFaceModel/tf_op_layer_strided_slice_59/strided_slice_59/begin", "op": "Const", "attr": {"dtype": {"type": "DT_INT32"}, "value": {"tensor": {"dtype": "DT_INT32", "tensorShape": {"dim": [{"size": "1"}]}}}}}, {"name": "StatefulPartitionedCall/SmileFaceModel/tf_op_layer_strided_slice_59/strided_slice_59/end", "op": "Const", "attr": {"value": {"tensor": {"dtype": "DT_INT32", "tensorShape": {"dim": [{"size": "1"}]}}}, "dtype": {"type": "DT_INT32"}}}, {"name": "StatefulPartitionedCall/SmileFaceModel/tf_op_layer_strided_slice_59/strided_slice_59/strides", "op": "Const", "attr": {"value": {"tensor": {"dtype": "DT_INT32", "tensorShape": {"dim": [{"size": "1"}]}}}, "dtype": {"type": "DT_INT32"}}}, {"name": "StatefulPartitionedCall/SmileFaceModel/tf_op_layer_Tile_5/multiples/Tile_5/multiples/2", "op": "Const", "attr": {"value": {"tensor": {"dtype": "DT_INT32", "tensorShape": {}}}, "dtype": {"type": "DT_INT32"}}}, {"name": "StatefulPartitionedCall/SmileFaceModel/tf_op_layer_Tile_5/multiples/Tile_5/multiples/3", "op": "Const", "attr": {"dtype": {"type": "DT_INT32"}, "value": {"tensor": {"dtype": "DT_INT32", "tensorShape": {}}}}}, {"name": "StatefulPartitionedCall/SmileFaceModel/tf_op_layer_Reshape_21/Reshape_21/shape", "op": "Const", "attr": {"dtype": {"type": "DT_INT32"}, "value": {"tensor": {"dtype": "DT_INT32", "tensorShape": {"dim": [{"size": "2"}]}}}}}, {"name": "StatefulPartitionedCall/SmileFaceModel/tf_op_layer_concat_13/concat_13/axis", "op": "Const", "attr": {"dtype": {"type": "DT_INT32"}, "value": {"tensor": {"dtype": "DT_INT32", "tensorShape": {}}}}}, {"name": "StatefulPartitionedCall/SmileFaceModel/tf_op_layer_concat_14/concat_14/axis", "op": "Const", "attr": {"value": {"tensor": {"dtype": "DT_INT32", "tensorShape": {}}}, "dtype": {"type": "DT_INT32"}}}, {"name": "StatefulPartitionedCall/SmileFaceModel/tf_op_layer_strided_slice_141/strided_slice_141/begin", "op": "Const", "attr": {"value": {"tensor": {"dtype": "DT_INT32", "tensorShape": {"dim": [{"size": "2"}]}}}, "dtype": {"type": "DT_INT32"}}}, {"name": "StatefulPartitionedCall/SmileFaceModel/tf_op_layer_strided_slice_141/strided_slice_141/end", "op": "Const", "attr": {"value": {"tensor": {"dtype": "DT_INT32", "tensorShape": {"dim": [{"size": "2"}]}}}, "dtype": {"type": "DT_INT32"}}}, {"name": "StatefulPartitionedCall/SmileFaceModel/tf_op_layer_strided_slice_141/strided_slice_141/strides", "op": "Const", "attr": {"dtype": {"type": "DT_INT32"}, "value": {"tensor": {"dtype": "DT_INT32", "tensorShape": {"dim": [{"size": "2"}]}}}}}, {"name": "unknown_282", "op": "Const", "attr": {"value": {"tensor": {"dtype": "DT_FLOAT", "tensorShape": {"dim": [{"size": "1"}, {"size": "1"}, {"size": "64"}, {"size": "8"}]}}}, "dtype": {"type": "DT_FLOAT"}}}, {"name": "unknown_283", "op": "Const", "attr": {"dtype": {"type": "DT_FLOAT"}, "value": {"tensor": {"dtype": "DT_FLOAT", "tensorShape": {"dim": [{"size": "8"}]}}}}}, {"name": "StatefulPartitionedCall/SmileFaceModel/BboxHead_0/Reshape/shape/0", "op": "Const", "attr": {"dtype": {"type": "DT_INT32"}, "value": {"tensor": {"dtype": "DT_INT32", "tensorShape": {}}}}}, {"name": "StatefulPartitionedCall/SmileFaceModel/BboxHead_0/strided_slice/stack", "op": "Const", "attr": {"value": {"tensor": {"dtype": "DT_INT32", "tensorShape": {"dim": [{"size": "1"}]}}}, "dtype": {"type": "DT_INT32"}}}, {"name": "StatefulPartitionedCall/SmileFaceModel/BboxHead_0/strided_slice/stack_1", "op": "Const", "attr": {"dtype": {"type": "DT_INT32"}, "value": {"tensor": {"dtype": "DT_INT32", "tensorShape": {"dim": [{"size": "1"}]}}}}}, {"name": "StatefulPartitionedCall/SmileFaceModel/BboxHead_0/strided_slice/stack_2", "op": "Const", "attr": {"value": {"tensor": {"dtype": "DT_INT32", "tensorShape": {"dim": [{"size": "1"}]}}}, "dtype": {"type": "DT_INT32"}}}, {"name": "StatefulPartitionedCall/SmileFaceModel/BboxHead_0/mul_1/y", "op": "Const", "attr": {"value": {"tensor": {"dtype": "DT_INT32", "tensorShape": {}}}, "dtype": {"type": "DT_INT32"}}}, {"name": "StatefulPartitionedCall/SmileFaceModel/BboxHead_0/strided_slice_1/stack", "op": "Const", "attr": {"value": {"tensor": {"dtype": "DT_INT32", "tensorShape": {"dim": [{"size": "1"}]}}}, "dtype": {"type": "DT_INT32"}}}, {"name": "StatefulPartitionedCall/SmileFaceModel/BboxHead_0/strided_slice_1/stack_1", "op": "Const", "attr": {"dtype": {"type": "DT_INT32"}, "value": {"tensor": {"dtype": "DT_INT32", "tensorShape": {"dim": [{"size": "1"}]}}}}}, {"name": "StatefulPartitionedCall/SmileFaceModel/BboxHead_0/strided_slice_1/stack_2", "op": "Const", "attr": {"dtype": {"type": "DT_INT32"}, "value": {"tensor": {"dtype": "DT_INT32", "tensorShape": {"dim": [{"size": "1"}]}}}}}, {"name": "StatefulPartitionedCall/SmileFaceModel/BboxHead_0/Reshape/shape/2", "op": "Const", "attr": {"value": {"tensor": {"dtype": "DT_INT32", "tensorShape": {}}}, "dtype": {"type": "DT_INT32"}}}, {"name": "unknown_284", "op": "Const", "attr": {"dtype": {"type": "DT_FLOAT"}, "value": {"tensor": {"dtype": "DT_FLOAT", "tensorShape": {"dim": [{"size": "1"}, {"size": "1"}, {"size": "64"}, {"size": "8"}]}}}}}, {"name": "unknown_285", "op": "Const", "attr": {"value": {"tensor": {"dtype": "DT_FLOAT", "tensorShape": {"dim": [{"size": "8"}]}}}, "dtype": {"type": "DT_FLOAT"}}}, {"name": "StatefulPartitionedCall/SmileFaceModel/BboxHead_1/Reshape/shape/0", "op": "Const", "attr": {"value": {"tensor": {"dtype": "DT_INT32", "tensorShape": {}}}, "dtype": {"type": "DT_INT32"}}}, {"name": "StatefulPartitionedCall/SmileFaceModel/BboxHead_1/strided_slice/stack", "op": "Const", "attr": {"dtype": {"type": "DT_INT32"}, "value": {"tensor": {"dtype": "DT_INT32", "tensorShape": {"dim": [{"size": "1"}]}}}}}, {"name": "StatefulPartitionedCall/SmileFaceModel/BboxHead_1/strided_slice/stack_1", "op": "Const", "attr": {"dtype": {"type": "DT_INT32"}, "value": {"tensor": {"dtype": "DT_INT32", "tensorShape": {"dim": [{"size": "1"}]}}}}}, {"name": "StatefulPartitionedCall/SmileFaceModel/BboxHead_1/strided_slice/stack_2", "op": "Const", "attr": {"dtype": {"type": "DT_INT32"}, "value": {"tensor": {"dtype": "DT_INT32", "tensorShape": {"dim": [{"size": "1"}]}}}}}, {"name": "StatefulPartitionedCall/SmileFaceModel/BboxHead_1/mul_1/y", "op": "Const", "attr": {"value": {"tensor": {"dtype": "DT_INT32", "tensorShape": {}}}, "dtype": {"type": "DT_INT32"}}}, {"name": "StatefulPartitionedCall/SmileFaceModel/BboxHead_1/strided_slice_1/stack", "op": "Const", "attr": {"dtype": {"type": "DT_INT32"}, "value": {"tensor": {"dtype": "DT_INT32", "tensorShape": {"dim": [{"size": "1"}]}}}}}, {"name": "StatefulPartitionedCall/SmileFaceModel/BboxHead_1/strided_slice_1/stack_1", "op": "Const", "attr": {"value": {"tensor": {"dtype": "DT_INT32", "tensorShape": {"dim": [{"size": "1"}]}}}, "dtype": {"type": "DT_INT32"}}}, {"name": "StatefulPartitionedCall/SmileFaceModel/BboxHead_1/strided_slice_1/stack_2", "op": "Const", "attr": {"dtype": {"type": "DT_INT32"}, "value": {"tensor": {"dtype": "DT_INT32", "tensorShape": {"dim": [{"size": "1"}]}}}}}, {"name": "StatefulPartitionedCall/SmileFaceModel/BboxHead_1/Reshape/shape/2", "op": "Const", "attr": {"value": {"tensor": {"dtype": "DT_INT32", "tensorShape": {}}}, "dtype": {"type": "DT_INT32"}}}, {"name": "unknown_286", "op": "Const", "attr": {"value": {"tensor": {"dtype": "DT_FLOAT", "tensorShape": {"dim": [{"size": "1"}, {"size": "1"}, {"size": "64"}, {"size": "8"}]}}}, "dtype": {"type": "DT_FLOAT"}}}, {"name": "unknown_287", "op": "Const", "attr": {"value": {"tensor": {"dtype": "DT_FLOAT", "tensorShape": {"dim": [{"size": "8"}]}}}, "dtype": {"type": "DT_FLOAT"}}}, {"name": "StatefulPartitionedCall/SmileFaceModel/BboxHead_2/Reshape/shape/0", "op": "Const", "attr": {"value": {"tensor": {"dtype": "DT_INT32", "tensorShape": {}}}, "dtype": {"type": "DT_INT32"}}}, {"name": "StatefulPartitionedCall/SmileFaceModel/BboxHead_2/strided_slice/stack", "op": "Const", "attr": {"dtype": {"type": "DT_INT32"}, "value": {"tensor": {"dtype": "DT_INT32", "tensorShape": {"dim": [{"size": "1"}]}}}}}, {"name": "StatefulPartitionedCall/SmileFaceModel/BboxHead_2/strided_slice/stack_1", "op": "Const", "attr": {"value": {"tensor": {"dtype": "DT_INT32", "tensorShape": {"dim": [{"size": "1"}]}}}, "dtype": {"type": "DT_INT32"}}}, {"name": "StatefulPartitionedCall/SmileFaceModel/BboxHead_2/strided_slice/stack_2", "op": "Const", "attr": {"dtype": {"type": "DT_INT32"}, "value": {"tensor": {"dtype": "DT_INT32", "tensorShape": {"dim": [{"size": "1"}]}}}}}, {"name": "StatefulPartitionedCall/SmileFaceModel/BboxHead_2/mul_1/y", "op": "Const", "attr": {"value": {"tensor": {"dtype": "DT_INT32", "tensorShape": {}}}, "dtype": {"type": "DT_INT32"}}}, {"name": "StatefulPartitionedCall/SmileFaceModel/BboxHead_2/strided_slice_1/stack", "op": "Const", "attr": {"value": {"tensor": {"dtype": "DT_INT32", "tensorShape": {"dim": [{"size": "1"}]}}}, "dtype": {"type": "DT_INT32"}}}, {"name": "StatefulPartitionedCall/SmileFaceModel/BboxHead_2/strided_slice_1/stack_1", "op": "Const", "attr": {"dtype": {"type": "DT_INT32"}, "value": {"tensor": {"dtype": "DT_INT32", "tensorShape": {"dim": [{"size": "1"}]}}}}}, {"name": "StatefulPartitionedCall/SmileFaceModel/BboxHead_2/strided_slice_1/stack_2", "op": "Const", "attr": {"value": {"tensor": {"dtype": "DT_INT32", "tensorShape": {"dim": [{"size": "1"}]}}}, "dtype": {"type": "DT_INT32"}}}, {"name": "StatefulPartitionedCall/SmileFaceModel/BboxHead_2/Reshape/shape/2", "op": "Const", "attr": {"dtype": {"type": "DT_INT32"}, "value": {"tensor": {"dtype": "DT_INT32", "tensorShape": {}}}}}, {"name": "StatefulPartitionedCall/SmileFaceModel/tf_op_layer_concat/concat/axis", "op": "Const", "attr": {"value": {"tensor": {"dtype": "DT_INT32", "tensorShape": {}}}, "dtype": {"type": "DT_INT32"}}}, {"name": "StatefulPartitionedCall/SmileFaceModel/tf_op_layer_strided_slice/strided_slice/begin", "op": "Const", "attr": {"value": {"tensor": {"dtype": "DT_INT32", "tensorShape": {"dim": [{"size": "1"}]}}}, "dtype": {"type": "DT_INT32"}}}, {"name": "StatefulPartitionedCall/SmileFaceModel/tf_op_layer_strided_slice/strided_slice/end", "op": "Const", "attr": {"value": {"tensor": {"dtype": "DT_INT32", "tensorShape": {"dim": [{"size": "1"}]}}}, "dtype": {"type": "DT_INT32"}}}, {"name": "StatefulPartitionedCall/SmileFaceModel/tf_op_layer_strided_slice/strided_slice/strides", "op": "Const", "attr": {"value": {"tensor": {"dtype": "DT_INT32", "tensorShape": {"dim": [{"size": "1"}]}}}, "dtype": {"type": "DT_INT32"}}}, {"name": "unknown_276", "op": "Const", "attr": {"value": {"tensor": {"dtype": "DT_FLOAT", "tensorShape": {"dim": [{"size": "1"}, {"size": "1"}, {"size": "64"}, {"size": "96"}]}}}, "dtype": {"type": "DT_FLOAT"}}}, {"name": "unknown_277", "op": "Const", "attr": {"dtype": {"type": "DT_FLOAT"}, "value": {"tensor": {"dtype": "DT_FLOAT", "tensorShape": {"dim": [{"size": "96"}]}}}}}, {"name": "StatefulPartitionedCall/SmileFaceModel/LandmarkHead_0/Reshape/shape/0", "op": "Const", "attr": {"dtype": {"type": "DT_INT32"}, "value": {"tensor": {"dtype": "DT_INT32", "tensorShape": {}}}}}, {"name": "StatefulPartitionedCall/SmileFaceModel/LandmarkHead_0/strided_slice/stack", "op": "Const", "attr": {"dtype": {"type": "DT_INT32"}, "value": {"tensor": {"dtype": "DT_INT32", "tensorShape": {"dim": [{"size": "1"}]}}}}}, {"name": "StatefulPartitionedCall/SmileFaceModel/LandmarkHead_0/strided_slice/stack_1", "op": "Const", "attr": {"dtype": {"type": "DT_INT32"}, "value": {"tensor": {"dtype": "DT_INT32", "tensorShape": {"dim": [{"size": "1"}]}}}}}, {"name": "StatefulPartitionedCall/SmileFaceModel/LandmarkHead_0/strided_slice/stack_2", "op": "Const", "attr": {"dtype": {"type": "DT_INT32"}, "value": {"tensor": {"dtype": "DT_INT32", "tensorShape": {"dim": [{"size": "1"}]}}}}}, {"name": "StatefulPartitionedCall/SmileFaceModel/LandmarkHead_0/mul_1/y", "op": "Const", "attr": {"dtype": {"type": "DT_INT32"}, "value": {"tensor": {"dtype": "DT_INT32", "tensorShape": {}}}}}, {"name": "StatefulPartitionedCall/SmileFaceModel/LandmarkHead_0/strided_slice_1/stack", "op": "Const", "attr": {"dtype": {"type": "DT_INT32"}, "value": {"tensor": {"dtype": "DT_INT32", "tensorShape": {"dim": [{"size": "1"}]}}}}}, {"name": "StatefulPartitionedCall/SmileFaceModel/LandmarkHead_0/strided_slice_1/stack_1", "op": "Const", "attr": {"dtype": {"type": "DT_INT32"}, "value": {"tensor": {"dtype": "DT_INT32", "tensorShape": {"dim": [{"size": "1"}]}}}}}, {"name": "StatefulPartitionedCall/SmileFaceModel/LandmarkHead_0/strided_slice_1/stack_2", "op": "Const", "attr": {"dtype": {"type": "DT_INT32"}, "value": {"tensor": {"dtype": "DT_INT32", "tensorShape": {"dim": [{"size": "1"}]}}}}}, {"name": "StatefulPartitionedCall/SmileFaceModel/LandmarkHead_0/Reshape/shape/2", "op": "Const", "attr": {"dtype": {"type": "DT_INT32"}, "value": {"tensor": {"dtype": "DT_INT32", "tensorShape": {}}}}}, {"name": "unknown_278", "op": "Const", "attr": {"value": {"tensor": {"dtype": "DT_FLOAT", "tensorShape": {"dim": [{"size": "1"}, {"size": "1"}, {"size": "64"}, {"size": "96"}]}}}, "dtype": {"type": "DT_FLOAT"}}}, {"name": "unknown_279", "op": "Const", "attr": {"value": {"tensor": {"dtype": "DT_FLOAT", "tensorShape": {"dim": [{"size": "96"}]}}}, "dtype": {"type": "DT_FLOAT"}}}, {"name": "StatefulPartitionedCall/SmileFaceModel/LandmarkHead_1/Reshape/shape/0", "op": "Const", "attr": {"dtype": {"type": "DT_INT32"}, "value": {"tensor": {"dtype": "DT_INT32", "tensorShape": {}}}}}, {"name": "StatefulPartitionedCall/SmileFaceModel/LandmarkHead_1/strided_slice/stack", "op": "Const", "attr": {"value": {"tensor": {"dtype": "DT_INT32", "tensorShape": {"dim": [{"size": "1"}]}}}, "dtype": {"type": "DT_INT32"}}}, {"name": "StatefulPartitionedCall/SmileFaceModel/LandmarkHead_1/strided_slice/stack_1", "op": "Const", "attr": {"dtype": {"type": "DT_INT32"}, "value": {"tensor": {"dtype": "DT_INT32", "tensorShape": {"dim": [{"size": "1"}]}}}}}, {"name": "StatefulPartitionedCall/SmileFaceModel/LandmarkHead_1/strided_slice/stack_2", "op": "Const", "attr": {"value": {"tensor": {"dtype": "DT_INT32", "tensorShape": {"dim": [{"size": "1"}]}}}, "dtype": {"type": "DT_INT32"}}}, {"name": "StatefulPartitionedCall/SmileFaceModel/LandmarkHead_1/mul_1/y", "op": "Const", "attr": {"dtype": {"type": "DT_INT32"}, "value": {"tensor": {"dtype": "DT_INT32", "tensorShape": {}}}}}, {"name": "StatefulPartitionedCall/SmileFaceModel/LandmarkHead_1/strided_slice_1/stack", "op": "Const", "attr": {"dtype": {"type": "DT_INT32"}, "value": {"tensor": {"dtype": "DT_INT32", "tensorShape": {"dim": [{"size": "1"}]}}}}}, {"name": "StatefulPartitionedCall/SmileFaceModel/LandmarkHead_1/strided_slice_1/stack_1", "op": "Const", "attr": {"dtype": {"type": "DT_INT32"}, "value": {"tensor": {"dtype": "DT_INT32", "tensorShape": {"dim": [{"size": "1"}]}}}}}, {"name": "StatefulPartitionedCall/SmileFaceModel/LandmarkHead_1/strided_slice_1/stack_2", "op": "Const", "attr": {"value": {"tensor": {"dtype": "DT_INT32", "tensorShape": {"dim": [{"size": "1"}]}}}, "dtype": {"type": "DT_INT32"}}}, {"name": "StatefulPartitionedCall/SmileFaceModel/LandmarkHead_1/Reshape/shape/2", "op": "Const", "attr": {"dtype": {"type": "DT_INT32"}, "value": {"tensor": {"dtype": "DT_INT32", "tensorShape": {}}}}}, {"name": "unknown_280", "op": "Const", "attr": {"value": {"tensor": {"dtype": "DT_FLOAT", "tensorShape": {"dim": [{"size": "1"}, {"size": "1"}, {"size": "64"}, {"size": "96"}]}}}, "dtype": {"type": "DT_FLOAT"}}}, {"name": "unknown_281", "op": "Const", "attr": {"dtype": {"type": "DT_FLOAT"}, "value": {"tensor": {"dtype": "DT_FLOAT", "tensorShape": {"dim": [{"size": "96"}]}}}}}, {"name": "StatefulPartitionedCall/SmileFaceModel/LandmarkHead_2/Reshape/shape/0", "op": "Const", "attr": {"dtype": {"type": "DT_INT32"}, "value": {"tensor": {"dtype": "DT_INT32", "tensorShape": {}}}}}, {"name": "StatefulPartitionedCall/SmileFaceModel/LandmarkHead_2/strided_slice/stack", "op": "Const", "attr": {"dtype": {"type": "DT_INT32"}, "value": {"tensor": {"dtype": "DT_INT32", "tensorShape": {"dim": [{"size": "1"}]}}}}}, {"name": "StatefulPartitionedCall/SmileFaceModel/LandmarkHead_2/strided_slice/stack_1", "op": "Const", "attr": {"dtype": {"type": "DT_INT32"}, "value": {"tensor": {"dtype": "DT_INT32", "tensorShape": {"dim": [{"size": "1"}]}}}}}, {"name": "StatefulPartitionedCall/SmileFaceModel/LandmarkHead_2/strided_slice/stack_2", "op": "Const", "attr": {"value": {"tensor": {"dtype": "DT_INT32", "tensorShape": {"dim": [{"size": "1"}]}}}, "dtype": {"type": "DT_INT32"}}}, {"name": "StatefulPartitionedCall/SmileFaceModel/LandmarkHead_2/mul_1/y", "op": "Const", "attr": {"value": {"tensor": {"dtype": "DT_INT32", "tensorShape": {}}}, "dtype": {"type": "DT_INT32"}}}, {"name": "StatefulPartitionedCall/SmileFaceModel/LandmarkHead_2/strided_slice_1/stack", "op": "Const", "attr": {"value": {"tensor": {"dtype": "DT_INT32", "tensorShape": {"dim": [{"size": "1"}]}}}, "dtype": {"type": "DT_INT32"}}}, {"name": "StatefulPartitionedCall/SmileFaceModel/LandmarkHead_2/strided_slice_1/stack_1", "op": "Const", "attr": {"dtype": {"type": "DT_INT32"}, "value": {"tensor": {"dtype": "DT_INT32", "tensorShape": {"dim": [{"size": "1"}]}}}}}, {"name": "StatefulPartitionedCall/SmileFaceModel/LandmarkHead_2/strided_slice_1/stack_2", "op": "Const", "attr": {"value": {"tensor": {"dtype": "DT_INT32", "tensorShape": {"dim": [{"size": "1"}]}}}, "dtype": {"type": "DT_INT32"}}}, {"name": "StatefulPartitionedCall/SmileFaceModel/LandmarkHead_2/Reshape/shape/2", "op": "Const", "attr": {"dtype": {"type": "DT_INT32"}, "value": {"tensor": {"dtype": "DT_INT32", "tensorShape": {}}}}}, {"name": "StatefulPartitionedCall/SmileFaceModel/tf_op_layer_concat_1/concat_1/axis", "op": "Const", "attr": {"dtype": {"type": "DT_INT32"}, "value": {"tensor": {"dtype": "DT_INT32", "tensorShape": {}}}}}, {"name": "StatefulPartitionedCall/SmileFaceModel/tf_op_layer_strided_slice_1/strided_slice_1/begin", "op": "Const", "attr": {"value": {"tensor": {"dtype": "DT_INT32", "tensorShape": {"dim": [{"size": "1"}]}}}, "dtype": {"type": "DT_INT32"}}}, {"name": "StatefulPartitionedCall/SmileFaceModel/tf_op_layer_strided_slice_1/strided_slice_1/end", "op": "Const", "attr": {"value": {"tensor": {"dtype": "DT_INT32", "tensorShape": {"dim": [{"size": "1"}]}}}, "dtype": {"type": "DT_INT32"}}}, {"name": "StatefulPartitionedCall/SmileFaceModel/tf_op_layer_strided_slice_1/strided_slice_1/strides", "op": "Const", "attr": {"value": {"tensor": {"dtype": "DT_INT32", "tensorShape": {"dim": [{"size": "1"}]}}}, "dtype": {"type": "DT_INT32"}}}, {"name": "unknown_264", "op": "Const", "attr": {"dtype": {"type": "DT_FLOAT"}, "value": {"tensor": {"dtype": "DT_FLOAT", "tensorShape": {"dim": [{"size": "1"}, {"size": "1"}, {"size": "64"}, {"size": "4"}]}}}}}, {"name": "unknown_265", "op": "Const", "attr": {"dtype": {"type": "DT_FLOAT"}, "value": {"tensor": {"dtype": "DT_FLOAT", "tensorShape": {"dim": [{"size": "4"}]}}}}}, {"name": "StatefulPartitionedCall/SmileFaceModel/SmileHead_0/Reshape/shape/0", "op": "Const", "attr": {"value": {"tensor": {"dtype": "DT_INT32", "tensorShape": {}}}, "dtype": {"type": "DT_INT32"}}}, {"name": "StatefulPartitionedCall/SmileFaceModel/SmileHead_0/strided_slice/stack", "op": "Const", "attr": {"dtype": {"type": "DT_INT32"}, "value": {"tensor": {"dtype": "DT_INT32", "tensorShape": {"dim": [{"size": "1"}]}}}}}, {"name": "StatefulPartitionedCall/SmileFaceModel/SmileHead_0/strided_slice/stack_1", "op": "Const", "attr": {"dtype": {"type": "DT_INT32"}, "value": {"tensor": {"dtype": "DT_INT32", "tensorShape": {"dim": [{"size": "1"}]}}}}}, {"name": "StatefulPartitionedCall/SmileFaceModel/SmileHead_0/strided_slice/stack_2", "op": "Const", "attr": {"dtype": {"type": "DT_INT32"}, "value": {"tensor": {"dtype": "DT_INT32", "tensorShape": {"dim": [{"size": "1"}]}}}}}, {"name": "StatefulPartitionedCall/SmileFaceModel/SmileHead_0/mul_1/y", "op": "Const", "attr": {"value": {"tensor": {"dtype": "DT_INT32", "tensorShape": {}}}, "dtype": {"type": "DT_INT32"}}}, {"name": "StatefulPartitionedCall/SmileFaceModel/SmileHead_0/strided_slice_1/stack", "op": "Const", "attr": {"dtype": {"type": "DT_INT32"}, "value": {"tensor": {"dtype": "DT_INT32", "tensorShape": {"dim": [{"size": "1"}]}}}}}, {"name": "StatefulPartitionedCall/SmileFaceModel/SmileHead_0/strided_slice_1/stack_1", "op": "Const", "attr": {"value": {"tensor": {"dtype": "DT_INT32", "tensorShape": {"dim": [{"size": "1"}]}}}, "dtype": {"type": "DT_INT32"}}}, {"name": "StatefulPartitionedCall/SmileFaceModel/SmileHead_0/strided_slice_1/stack_2", "op": "Const", "attr": {"dtype": {"type": "DT_INT32"}, "value": {"tensor": {"dtype": "DT_INT32", "tensorShape": {"dim": [{"size": "1"}]}}}}}, {"name": "StatefulPartitionedCall/SmileFaceModel/SmileHead_0/Reshape/shape/2", "op": "Const", "attr": {"dtype": {"type": "DT_INT32"}, "value": {"tensor": {"dtype": "DT_INT32", "tensorShape": {}}}}}, {"name": "unknown_266", "op": "Const", "attr": {"value": {"tensor": {"dtype": "DT_FLOAT", "tensorShape": {"dim": [{"size": "1"}, {"size": "1"}, {"size": "64"}, {"size": "4"}]}}}, "dtype": {"type": "DT_FLOAT"}}}, {"name": "unknown_267", "op": "Const", "attr": {"value": {"tensor": {"dtype": "DT_FLOAT", "tensorShape": {"dim": [{"size": "4"}]}}}, "dtype": {"type": "DT_FLOAT"}}}, {"name": "StatefulPartitionedCall/SmileFaceModel/SmileHead_1/Reshape/shape/0", "op": "Const", "attr": {"dtype": {"type": "DT_INT32"}, "value": {"tensor": {"dtype": "DT_INT32", "tensorShape": {}}}}}, {"name": "StatefulPartitionedCall/SmileFaceModel/SmileHead_1/strided_slice/stack", "op": "Const", "attr": {"dtype": {"type": "DT_INT32"}, "value": {"tensor": {"dtype": "DT_INT32", "tensorShape": {"dim": [{"size": "1"}]}}}}}, {"name": "StatefulPartitionedCall/SmileFaceModel/SmileHead_1/strided_slice/stack_1", "op": "Const", "attr": {"value": {"tensor": {"dtype": "DT_INT32", "tensorShape": {"dim": [{"size": "1"}]}}}, "dtype": {"type": "DT_INT32"}}}, {"name": "StatefulPartitionedCall/SmileFaceModel/SmileHead_1/strided_slice/stack_2", "op": "Const", "attr": {"dtype": {"type": "DT_INT32"}, "value": {"tensor": {"dtype": "DT_INT32", "tensorShape": {"dim": [{"size": "1"}]}}}}}, {"name": "StatefulPartitionedCall/SmileFaceModel/SmileHead_1/mul_1/y", "op": "Const", "attr": {"value": {"tensor": {"dtype": "DT_INT32", "tensorShape": {}}}, "dtype": {"type": "DT_INT32"}}}, {"name": "StatefulPartitionedCall/SmileFaceModel/SmileHead_1/strided_slice_1/stack", "op": "Const", "attr": {"value": {"tensor": {"dtype": "DT_INT32", "tensorShape": {"dim": [{"size": "1"}]}}}, "dtype": {"type": "DT_INT32"}}}, {"name": "StatefulPartitionedCall/SmileFaceModel/SmileHead_1/strided_slice_1/stack_1", "op": "Const", "attr": {"dtype": {"type": "DT_INT32"}, "value": {"tensor": {"dtype": "DT_INT32", "tensorShape": {"dim": [{"size": "1"}]}}}}}, {"name": "StatefulPartitionedCall/SmileFaceModel/SmileHead_1/strided_slice_1/stack_2", "op": "Const", "attr": {"dtype": {"type": "DT_INT32"}, "value": {"tensor": {"dtype": "DT_INT32", "tensorShape": {"dim": [{"size": "1"}]}}}}}, {"name": "StatefulPartitionedCall/SmileFaceModel/SmileHead_1/Reshape/shape/2", "op": "Const", "attr": {"dtype": {"type": "DT_INT32"}, "value": {"tensor": {"dtype": "DT_INT32", "tensorShape": {}}}}}, {"name": "unknown_268", "op": "Const", "attr": {"value": {"tensor": {"dtype": "DT_FLOAT", "tensorShape": {"dim": [{"size": "1"}, {"size": "1"}, {"size": "64"}, {"size": "4"}]}}}, "dtype": {"type": "DT_FLOAT"}}}, {"name": "unknown_269", "op": "Const", "attr": {"dtype": {"type": "DT_FLOAT"}, "value": {"tensor": {"dtype": "DT_FLOAT", "tensorShape": {"dim": [{"size": "4"}]}}}}}, {"name": "StatefulPartitionedCall/SmileFaceModel/SmileHead_2/Reshape/shape/0", "op": "Const", "attr": {"value": {"tensor": {"dtype": "DT_INT32", "tensorShape": {}}}, "dtype": {"type": "DT_INT32"}}}, {"name": "StatefulPartitionedCall/SmileFaceModel/SmileHead_2/strided_slice/stack", "op": "Const", "attr": {"value": {"tensor": {"dtype": "DT_INT32", "tensorShape": {"dim": [{"size": "1"}]}}}, "dtype": {"type": "DT_INT32"}}}, {"name": "StatefulPartitionedCall/SmileFaceModel/SmileHead_2/strided_slice/stack_1", "op": "Const", "attr": {"value": {"tensor": {"dtype": "DT_INT32", "tensorShape": {"dim": [{"size": "1"}]}}}, "dtype": {"type": "DT_INT32"}}}, {"name": "StatefulPartitionedCall/SmileFaceModel/SmileHead_2/strided_slice/stack_2", "op": "Const", "attr": {"dtype": {"type": "DT_INT32"}, "value": {"tensor": {"dtype": "DT_INT32", "tensorShape": {"dim": [{"size": "1"}]}}}}}, {"name": "StatefulPartitionedCall/SmileFaceModel/SmileHead_2/mul_1/y", "op": "Const", "attr": {"value": {"tensor": {"dtype": "DT_INT32", "tensorShape": {}}}, "dtype": {"type": "DT_INT32"}}}, {"name": "StatefulPartitionedCall/SmileFaceModel/SmileHead_2/strided_slice_1/stack", "op": "Const", "attr": {"dtype": {"type": "DT_INT32"}, "value": {"tensor": {"dtype": "DT_INT32", "tensorShape": {"dim": [{"size": "1"}]}}}}}, {"name": "StatefulPartitionedCall/SmileFaceModel/SmileHead_2/strided_slice_1/stack_1", "op": "Const", "attr": {"dtype": {"type": "DT_INT32"}, "value": {"tensor": {"dtype": "DT_INT32", "tensorShape": {"dim": [{"size": "1"}]}}}}}, {"name": "StatefulPartitionedCall/SmileFaceModel/SmileHead_2/strided_slice_1/stack_2", "op": "Const", "attr": {"dtype": {"type": "DT_INT32"}, "value": {"tensor": {"dtype": "DT_INT32", "tensorShape": {"dim": [{"size": "1"}]}}}}}, {"name": "StatefulPartitionedCall/SmileFaceModel/SmileHead_2/Reshape/shape/2", "op": "Const", "attr": {"dtype": {"type": "DT_INT32"}, "value": {"tensor": {"dtype": "DT_INT32", "tensorShape": {}}}}}, {"name": "StatefulPartitionedCall/SmileFaceModel/tf_op_layer_concat_3/concat_3/axis", "op": "Const", "attr": {"dtype": {"type": "DT_INT32"}, "value": {"tensor": {"dtype": "DT_INT32", "tensorShape": {}}}}}, {"name": "StatefulPartitionedCall/SmileFaceModel/tf_op_layer_strided_slice_2/strided_slice_2/begin", "op": "Const", "attr": {"value": {"tensor": {"dtype": "DT_INT32", "tensorShape": {"dim": [{"size": "3"}]}}}, "dtype": {"type": "DT_INT32"}}}, {"name": "StatefulPartitionedCall/SmileFaceModel/tf_op_layer_strided_slice_2/strided_slice_2/end", "op": "Const", "attr": {"dtype": {"type": "DT_INT32"}, "value": {"tensor": {"dtype": "DT_INT32", "tensorShape": {"dim": [{"size": "3"}]}}}}}, {"name": "StatefulPartitionedCall/SmileFaceModel/tf_op_layer_strided_slice_2/strided_slice_2/strides", "op": "Const", "attr": {"value": {"tensor": {"dtype": "DT_INT32", "tensorShape": {"dim": [{"size": "3"}]}}}, "dtype": {"type": "DT_INT32"}}}, {"name": "StatefulPartitionedCall/SmileFaceModel/tf_op_layer_ExpandDims/ExpandDims/dim", "op": "Const", "attr": {"dtype": {"type": "DT_INT32"}, "value": {"tensor": {"dtype": "DT_INT32", "tensorShape": {}}}}}, {"name": "unknown_270", "op": "Const", "attr": {"value": {"tensor": {"dtype": "DT_FLOAT", "tensorShape": {"dim": [{"size": "1"}, {"size": "1"}, {"size": "64"}, {"size": "6"}]}}}, "dtype": {"type": "DT_FLOAT"}}}, {"name": "unknown_271", "op": "Const", "attr": {"value": {"tensor": {"dtype": "DT_FLOAT", "tensorShape": {"dim": [{"size": "6"}]}}}, "dtype": {"type": "DT_FLOAT"}}}, {"name": "StatefulPartitionedCall/SmileFaceModel/ClassHead_0/Reshape/shape/0", "op": "Const", "attr": {"dtype": {"type": "DT_INT32"}, "value": {"tensor": {"dtype": "DT_INT32", "tensorShape": {}}}}}, {"name": "StatefulPartitionedCall/SmileFaceModel/ClassHead_0/strided_slice/stack", "op": "Const", "attr": {"dtype": {"type": "DT_INT32"}, "value": {"tensor": {"dtype": "DT_INT32", "tensorShape": {"dim": [{"size": "1"}]}}}}}, {"name": "StatefulPartitionedCall/SmileFaceModel/ClassHead_0/strided_slice/stack_1", "op": "Const", "attr": {"value": {"tensor": {"dtype": "DT_INT32", "tensorShape": {"dim": [{"size": "1"}]}}}, "dtype": {"type": "DT_INT32"}}}, {"name": "StatefulPartitionedCall/SmileFaceModel/ClassHead_0/strided_slice/stack_2", "op": "Const", "attr": {"dtype": {"type": "DT_INT32"}, "value": {"tensor": {"dtype": "DT_INT32", "tensorShape": {"dim": [{"size": "1"}]}}}}}, {"name": "StatefulPartitionedCall/SmileFaceModel/ClassHead_0/mul_1/y", "op": "Const", "attr": {"value": {"tensor": {"dtype": "DT_INT32", "tensorShape": {}}}, "dtype": {"type": "DT_INT32"}}}, {"name": "StatefulPartitionedCall/SmileFaceModel/FPN/strided_slice_2/stack", "op": "Const", "attr": {"value": {"tensor": {"dtype": "DT_INT32", "tensorShape": {"dim": [{"size": "1"}]}}}, "dtype": {"type": "DT_INT32"}}}, {"name": "StatefulPartitionedCall/SmileFaceModel/FPN/strided_slice_2/stack_1", "op": "Const", "attr": {"dtype": {"type": "DT_INT32"}, "value": {"tensor": {"dtype": "DT_INT32", "tensorShape": {"dim": [{"size": "1"}]}}}}}, {"name": "StatefulPartitionedCall/SmileFaceModel/FPN/strided_slice_2/stack_2", "op": "Const", "attr": {"dtype": {"type": "DT_INT32"}, "value": {"tensor": {"dtype": "DT_INT32", "tensorShape": {"dim": [{"size": "1"}]}}}}}, {"name": "StatefulPartitionedCall/SmileFaceModel/FPN/strided_slice_3/stack", "op": "Const", "attr": {"value": {"tensor": {"dtype": "DT_INT32", "tensorShape": {"dim": [{"size": "1"}]}}}, "dtype": {"type": "DT_INT32"}}}, {"name": "StatefulPartitionedCall/SmileFaceModel/FPN/strided_slice_3/stack_1", "op": "Const", "attr": {"dtype": {"type": "DT_INT32"}, "value": {"tensor": {"dtype": "DT_INT32", "tensorShape": {"dim": [{"size": "1"}]}}}}}, {"name": "StatefulPartitionedCall/SmileFaceModel/FPN/strided_slice_3/stack_2", "op": "Const", "attr": {"value": {"tensor": {"dtype": "DT_INT32", "tensorShape": {"dim": [{"size": "1"}]}}}, "dtype": {"type": "DT_INT32"}}}, {"name": "StatefulPartitionedCall/SmileFaceModel/ClassHead_0/strided_slice_1/stack", "op": "Const", "attr": {"dtype": {"type": "DT_INT32"}, "value": {"tensor": {"dtype": "DT_INT32", "tensorShape": {"dim": [{"size": "1"}]}}}}}, {"name": "StatefulPartitionedCall/SmileFaceModel/ClassHead_0/strided_slice_1/stack_1", "op": "Const", "attr": {"dtype": {"type": "DT_INT32"}, "value": {"tensor": {"dtype": "DT_INT32", "tensorShape": {"dim": [{"size": "1"}]}}}}}, {"name": "StatefulPartitionedCall/SmileFaceModel/ClassHead_0/strided_slice_1/stack_2", "op": "Const", "attr": {"dtype": {"type": "DT_INT32"}, "value": {"tensor": {"dtype": "DT_INT32", "tensorShape": {"dim": [{"size": "1"}]}}}}}, {"name": "StatefulPartitionedCall/SmileFaceModel/ClassHead_0/Reshape/shape/2", "op": "Const", "attr": {"value": {"tensor": {"dtype": "DT_INT32", "tensorShape": {}}}, "dtype": {"type": "DT_INT32"}}}, {"name": "unknown_272", "op": "Const", "attr": {"dtype": {"type": "DT_FLOAT"}, "value": {"tensor": {"dtype": "DT_FLOAT", "tensorShape": {"dim": [{"size": "1"}, {"size": "1"}, {"size": "64"}, {"size": "6"}]}}}}}, {"name": "unknown_273", "op": "Const", "attr": {"value": {"tensor": {"dtype": "DT_FLOAT", "tensorShape": {"dim": [{"size": "6"}]}}}, "dtype": {"type": "DT_FLOAT"}}}, {"name": "StatefulPartitionedCall/SmileFaceModel/ClassHead_1/Reshape/shape/0", "op": "Const", "attr": {"value": {"tensor": {"dtype": "DT_INT32", "tensorShape": {}}}, "dtype": {"type": "DT_INT32"}}}, {"name": "StatefulPartitionedCall/SmileFaceModel/ClassHead_1/strided_slice/stack", "op": "Const", "attr": {"dtype": {"type": "DT_INT32"}, "value": {"tensor": {"dtype": "DT_INT32", "tensorShape": {"dim": [{"size": "1"}]}}}}}, {"name": "StatefulPartitionedCall/SmileFaceModel/ClassHead_1/strided_slice/stack_1", "op": "Const", "attr": {"dtype": {"type": "DT_INT32"}, "value": {"tensor": {"dtype": "DT_INT32", "tensorShape": {"dim": [{"size": "1"}]}}}}}, {"name": "StatefulPartitionedCall/SmileFaceModel/ClassHead_1/strided_slice/stack_2", "op": "Const", "attr": {"dtype": {"type": "DT_INT32"}, "value": {"tensor": {"dtype": "DT_INT32", "tensorShape": {"dim": [{"size": "1"}]}}}}}, {"name": "StatefulPartitionedCall/SmileFaceModel/ClassHead_1/mul_1/y", "op": "Const", "attr": {"dtype": {"type": "DT_INT32"}, "value": {"tensor": {"dtype": "DT_INT32", "tensorShape": {}}}}}, {"name": "StatefulPartitionedCall/SmileFaceModel/FPN/strided_slice/stack", "op": "Const", "attr": {"value": {"tensor": {"dtype": "DT_INT32", "tensorShape": {"dim": [{"size": "1"}]}}}, "dtype": {"type": "DT_INT32"}}}, {"name": "StatefulPartitionedCall/SmileFaceModel/FPN/strided_slice/stack_1", "op": "Const", "attr": {"dtype": {"type": "DT_INT32"}, "value": {"tensor": {"dtype": "DT_INT32", "tensorShape": {"dim": [{"size": "1"}]}}}}}, {"name": "StatefulPartitionedCall/SmileFaceModel/FPN/strided_slice/stack_2", "op": "Const", "attr": {"dtype": {"type": "DT_INT32"}, "value": {"tensor": {"dtype": "DT_INT32", "tensorShape": {"dim": [{"size": "1"}]}}}}}, {"name": "StatefulPartitionedCall/SmileFaceModel/FPN/strided_slice_1/stack", "op": "Const", "attr": {"value": {"tensor": {"dtype": "DT_INT32", "tensorShape": {"dim": [{"size": "1"}]}}}, "dtype": {"type": "DT_INT32"}}}, {"name": "StatefulPartitionedCall/SmileFaceModel/FPN/strided_slice_1/stack_1", "op": "Const", "attr": {"value": {"tensor": {"dtype": "DT_INT32", "tensorShape": {"dim": [{"size": "1"}]}}}, "dtype": {"ty…
eFaceModel/tf_op_layer_Range_3/Range_3/delta", "shape": [], "dtype": "float32"}, {"name": "StatefulPartitionedCall/SmileFaceModel/tf_op_layer_strided_slice_29/strided_slice_29/begin", "shape": [1], "dtype": "int32"}, {"name": "StatefulPartitionedCall/SmileFaceModel/tf_op_layer_strided_slice_29/strided_slice_29/end", "shape": [1], "dtype": "int32"}, {"name": "StatefulPartitionedCall/SmileFaceModel/tf_op_layer_strided_slice_29/strided_slice_29/strides", "shape": [1], "dtype": "int32"}, {"name": "StatefulPartitionedCall/SmileFaceModel/tf_op_layer_Range_2/Range_2/start", "shape": [], "dtype": "float32"}, {"name": "StatefulPartitionedCall/SmileFaceModel/tf_op_layer_strided_slice_25/strided_slice_25/begin", "shape": [1], "dtype": "int32"}, {"name": "StatefulPartitionedCall/SmileFaceModel/tf_op_layer_strided_slice_25/strided_slice_25/end", "shape": [1], "dtype": "int32"}, {"name": "StatefulPartitionedCall/SmileFaceModel/tf_op_layer_strided_slice_25/strided_slice_25/strides", "shape": [1], "dtype": "int32"}, {"name": "StatefulPartitionedCall/SmileFaceModel/tf_op_layer_strided_slice_26/strided_slice_26/begin", "shape": [1], "dtype": "int32"}, {"name": "StatefulPartitionedCall/SmileFaceModel/tf_op_layer_strided_slice_26/strided_slice_26/end", "shape": [1], "dtype": "int32"}, {"name": "StatefulPartitionedCall/SmileFaceModel/tf_op_layer_strided_slice_26/strided_slice_26/strides", "shape": [1], "dtype": "int32"}, {"name": "StatefulPartitionedCall/SmileFaceModel/tf_op_layer_Range_2/Range_2/delta", "shape": [], "dtype": "float32"}, {"name": "StatefulPartitionedCall/SmileFaceModel/tf_op_layer_strided_slice_30/strided_slice_30/begin", "shape": [1], "dtype": "int32"}, {"name": "StatefulPartitionedCall/SmileFaceModel/tf_op_layer_strided_slice_30/strided_slice_30/end", "shape": [1], "dtype": "int32"}, {"name": "StatefulPartitionedCall/SmileFaceModel/tf_op_layer_strided_slice_30/strided_slice_30/strides", "shape": [1], "dtype": "int32"}, {"name": "StatefulPartitionedCall/SmileFaceModel/tf_op_layer_strided_slice_40/strided_slice_40/begin", "shape": [1], "dtype": "int32"}, {"name": "StatefulPartitionedCall/SmileFaceModel/tf_op_layer_strided_slice_40/strided_slice_40/end", "shape": [1], "dtype": "int32"}, {"name": "StatefulPartitionedCall/SmileFaceModel/tf_op_layer_strided_slice_40/strided_slice_40/strides", "shape": [1], "dtype": "int32"}, {"name": "StatefulPartitionedCall/SmileFaceModel/tf_op_layer_Tile_3/multiples/Tile_3/multiples/2", "shape": [], "dtype": "int32"}, {"name": "StatefulPartitionedCall/SmileFaceModel/tf_op_layer_Tile_3/multiples/Tile_3/multiples/3", "shape": [], "dtype": "int32"}, {"name": "StatefulPartitionedCall/SmileFaceModel/tf_op_layer_Reshape_14/Reshape_14/shape", "shape": [2], "dtype": "int32"}, {"name": "StatefulPartitionedCall/SmileFaceModel/tf_op_layer_concat_10/concat_10/axis", "shape": [], "dtype": "int32"}, {"name": "StatefulPartitionedCall/SmileFaceModel/tf_op_layer_ExpandDims_5/ExpandDims_5/dim", "shape": [], "dtype": "int32"}, {"name": "StatefulPartitionedCall/SmileFaceModel/tf_op_layer_Tile_4/Tile_4/multiples", "shape": [3], "dtype": "int32"}, {"name": "StatefulPartitionedCall/SmileFaceModel/tf_op_layer_strided_slice_52/strided_slice_52/begin", "shape": [1], "dtype": "int32"}, {"name": "StatefulPartitionedCall/SmileFaceModel/tf_op_layer_strided_slice_52/strided_slice_52/end", "shape": [1], "dtype": "int32"}, {"name": "StatefulPartitionedCall/SmileFaceModel/tf_op_layer_strided_slice_52/strided_slice_52/strides", "shape": [1], "dtype": "int32"}, {"name": "StatefulPartitionedCall/SmileFaceModel/tf_op_layer_Mul_12/Tile_4/multiples/values_1", "shape": [], "dtype": "int32"}, {"name": "StatefulPartitionedCall/SmileFaceModel/tf_op_layer_strided_slice_53/strided_slice_53/begin", "shape": [1], "dtype": "int32"}, {"name": "StatefulPartitionedCall/SmileFaceModel/tf_op_layer_strided_slice_53/strided_slice_53/end", "shape": [1], "dtype": "int32"}, {"name": "StatefulPartitionedCall/SmileFaceModel/tf_op_layer_strided_slice_53/strided_slice_53/strides", "shape": [1], "dtype": "int32"}, {"name": "StatefulPartitionedCall/SmileFaceModel/tf_op_layer_AddV2_4/AddV2_4/y", "shape": [], "dtype": "float32"}, {"name": "StatefulPartitionedCall/SmileFaceModel/tf_op_layer_Mul_10/Mul_10/y", "shape": [], "dtype": "float32"}, {"name": "StatefulPartitionedCall/SmileFaceModel/tf_op_layer_strided_slice_50/strided_slice_50/begin", "shape": [1], "dtype": "int32"}, {"name": "StatefulPartitionedCall/SmileFaceModel/tf_op_layer_strided_slice_50/strided_slice_50/end", "shape": [1], "dtype": "int32"}, {"name": "StatefulPartitionedCall/SmileFaceModel/tf_op_layer_strided_slice_50/strided_slice_50/strides", "shape": [1], "dtype": "int32"}, {"name": "StatefulPartitionedCall/SmileFaceModel/tf_op_layer_Reshape_16/Reshape_16/shape", "shape": [2], "dtype": "int32"}, {"name": "StatefulPartitionedCall/SmileFaceModel/tf_op_layer_AddV2_5/AddV2_5/y", "shape": [], "dtype": "float32"}, {"name": "StatefulPartitionedCall/SmileFaceModel/tf_op_layer_Mul_11/Mul_11/y", "shape": [], "dtype": "float32"}, {"name": "StatefulPartitionedCall/SmileFaceModel/tf_op_layer_strided_slice_51/strided_slice_51/begin", "shape": [1], "dtype": "int32"}, {"name": "StatefulPartitionedCall/SmileFaceModel/tf_op_layer_strided_slice_51/strided_slice_51/end", "shape": [1], "dtype": "int32"}, {"name": "StatefulPartitionedCall/SmileFaceModel/tf_op_layer_strided_slice_51/strided_slice_51/strides", "shape": [1], "dtype": "int32"}, {"name": "StatefulPartitionedCall/SmileFaceModel/tf_op_layer_Reshape_17/Reshape_17/shape", "shape": [2], "dtype": "int32"}, {"name": "StatefulPartitionedCall/SmileFaceModel/tf_op_layer_strided_slice_54/strided_slice_54/begin", "shape": [1], "dtype": "int32"}, {"name": "StatefulPartitionedCall/SmileFaceModel/tf_op_layer_strided_slice_54/strided_slice_54/end", "shape": [1], "dtype": "int32"}, {"name": "StatefulPartitionedCall/SmileFaceModel/tf_op_layer_strided_slice_54/strided_slice_54/strides", "shape": [1], "dtype": "int32"}, {"name": "StatefulPartitionedCall/SmileFaceModel/tf_op_layer_concat_11/concat_11/axis", "shape": [], "dtype": "int32"}, {"name": "StatefulPartitionedCall/SmileFaceModel/tf_op_layer_RealDiv_12/RealDiv_12/x", "shape": [2], "dtype": "float32"}, {"name": "StatefulPartitionedCall/SmileFaceModel/tf_op_layer_strided_slice_55/strided_slice_55/begin", "shape": [1], "dtype": "int32"}, {"name": "StatefulPartitionedCall/SmileFaceModel/tf_op_layer_strided_slice_55/strided_slice_55/end", "shape": [1], "dtype": "int32"}, {"name": "StatefulPartitionedCall/SmileFaceModel/tf_op_layer_strided_slice_55/strided_slice_55/strides", "shape": [1], "dtype": "int32"}, {"name": "StatefulPartitionedCall/SmileFaceModel/tf_op_layer_RealDiv_13/RealDiv_13/x", "shape": [2], "dtype": "float32"}, {"name": "StatefulPartitionedCall/SmileFaceModel/tf_op_layer_strided_slice_56/strided_slice_56/begin", "shape": [1], "dtype": "int32"}, {"name": "StatefulPartitionedCall/SmileFaceModel/tf_op_layer_strided_slice_56/strided_slice_56/end", "shape": [1], "dtype": "int32"}, {"name": "StatefulPartitionedCall/SmileFaceModel/tf_op_layer_strided_slice_56/strided_slice_56/strides", "shape": [1], "dtype": "int32"}, {"name": "StatefulPartitionedCall/SmileFaceModel/tf_op_layer_strided_slice_57/strided_slice_57/begin", "shape": [1], "dtype": "int32"}, {"name": "StatefulPartitionedCall/SmileFaceModel/tf_op_layer_strided_slice_57/strided_slice_57/end", "shape": [1], "dtype": "int32"}, {"name": "StatefulPartitionedCall/SmileFaceModel/tf_op_layer_strided_slice_57/strided_slice_57/strides", "shape": [1], "dtype": "int32"}, {"name": "StatefulPartitionedCall/SmileFaceModel/tf_op_layer_ExpandDims_6/ExpandDims_6/dim", "shape": [], "dtype": "int32"}, {"name": "StatefulPartitionedCall/SmileFaceModel/tf_op_layer_Tile_5/multiples/Tile_5/multiples/0", "shape": [], "dtype": "int32"}, {"name": "StatefulPartitionedCall/SmileFaceModel/tf_op_layer_strided_slice_58/strided_slice_58/begin", "shape": [1], "dtype": "int32"}, {"name": "StatefulPartitionedCall/SmileFaceModel/tf_op_layer_strided_slice_58/strided_slice_58/end", "shape": [1], "dtype": "int32"}, {"name": "StatefulPartitionedCall/SmileFaceModel/tf_op_layer_strided_slice_58/strided_slice_58/strides", "shape": [1], "dtype": "int32"}, {"name": "StatefulPartitionedCall/SmileFaceModel/tf_op_layer_Reshape_15/Reshape_15/shape", "shape": [2], "dtype": "int32"}, {"name": "StatefulPartitionedCall/SmileFaceModel/tf_op_layer_Range_5/Range_5/start", "shape": [], "dtype": "float32"}, {"name": "StatefulPartitionedCall/SmileFaceModel/tf_op_layer_strided_slice_46/strided_slice_46/begin", "shape": [1], "dtype": "int32"}, {"name": "StatefulPartitionedCall/SmileFaceModel/tf_op_layer_strided_slice_46/strided_slice_46/end", "shape": [1], "dtype": "int32"}, {"name": "StatefulPartitionedCall/SmileFaceModel/tf_op_layer_strided_slice_46/strided_slice_46/strides", "shape": [1], "dtype": "int32"}, {"name": "StatefulPartitionedCall/SmileFaceModel/tf_op_layer_strided_slice_47/strided_slice_47/begin", "shape": [1], "dtype": "int32"}, {"name": "StatefulPartitionedCall/SmileFaceModel/tf_op_layer_strided_slice_47/strided_slice_47/end", "shape": [1], "dtype": "int32"}, {"name": "StatefulPartitionedCall/SmileFaceModel/tf_op_layer_strided_slice_47/strided_slice_47/strides", "shape": [1], "dtype": "int32"}, {"name": "StatefulPartitionedCall/SmileFaceModel/tf_op_layer_Range_5/Range_5/delta", "shape": [], "dtype": "float32"}, {"name": "StatefulPartitionedCall/SmileFaceModel/tf_op_layer_strided_slice_48/strided_slice_48/begin", "shape": [1], "dtype": "int32"}, {"name": "StatefulPartitionedCall/SmileFaceModel/tf_op_layer_strided_slice_48/strided_slice_48/end", "shape": [1], "dtype": "int32"}, {"name": "StatefulPartitionedCall/SmileFaceModel/tf_op_layer_strided_slice_48/strided_slice_48/strides", "shape": [1], "dtype": "int32"}, {"name": "StatefulPartitionedCall/SmileFaceModel/tf_op_layer_Range_4/Range_4/start", "shape": [], "dtype": "float32"}, {"name": "StatefulPartitionedCall/SmileFaceModel/tf_op_layer_strided_slice_4/strided_slice_4/begin", "shape": [1], "dtype": "int32"}, {"name": "StatefulPartitionedCall/SmileFaceModel/tf_op_layer_strided_slice_4/strided_slice_4/end", "shape": [1], "dtype": "int32"}, {"name": "StatefulPartitionedCall/SmileFaceModel/tf_op_layer_strided_slice_4/strided_slice_4/strides", "shape": [1], "dtype": "int32"}, {"name": "StatefulPartitionedCall/SmileFaceModel/tf_op_layer_strided_slice_5/strided_slice_5/begin", "shape": [1], "dtype": "int32"}, {"name": "StatefulPartitionedCall/SmileFaceModel/tf_op_layer_strided_slice_5/strided_slice_5/end", "shape": [1], "dtype": "int32"}, {"name": "StatefulPartitionedCall/SmileFaceModel/tf_op_layer_strided_slice_5/strided_slice_5/strides", "shape": [1], "dtype": "int32"}, {"name": "StatefulPartitionedCall/SmileFaceModel/tf_op_layer_Reshape/Reshape/shape", "shape": [2], "dtype": "int32"}, {"name": "ConstantFolding/StatefulPartitionedCall/SmileFaceModel/tf_op_layer_RealDiv_1/RealDiv_1_recip", "shape": [3, 1], "dtype": "float32"}, {"name": "StatefulPartitionedCall/SmileFaceModel/tf_op_layer_strided_slice_44/strided_slice_44/begin", "shape": [1], "dtype": "int32"}, {"name": "StatefulPartitionedCall/SmileFaceModel/tf_op_layer_strided_slice_44/strided_slice_44/end", "shape": [1], "dtype": "int32"}, {"name": "StatefulPartitionedCall/SmileFaceModel/tf_op_layer_strided_slice_44/strided_slice_44/strides", "shape": [1], "dtype": "int32"}, {"name": "StatefulPartitionedCall/SmileFaceModel/tf_op_layer_strided_slice_45/strided_slice_45/begin", "shape": [1], "dtype": "int32"}, {"name": "StatefulPartitionedCall/SmileFaceModel/tf_op_layer_strided_slice_45/strided_slice_45/end", "shape": [1], "dtype": "int32"}, {"name": "StatefulPartitionedCall/SmileFaceModel/tf_op_layer_strided_slice_45/strided_slice_45/strides", "shape": [1], "dtype": "int32"}, {"name": "StatefulPartitionedCall/SmileFaceModel/tf_op_layer_Range_4/Range_4/delta", "shape": [], "dtype": "float32"}, {"name": "StatefulPartitionedCall/SmileFaceModel/tf_op_layer_strided_slice_49/strided_slice_49/begin", "shape": [1], "dtype": "int32"}, {"name": "StatefulPartitionedCall/SmileFaceModel/tf_op_layer_strided_slice_49/strided_slice_49/end", "shape": [1], "dtype": "int32"}, {"name": "StatefulPartitionedCall/SmileFaceModel/tf_op_layer_strided_slice_49/strided_slice_49/strides", "shape": [1], "dtype": "int32"}, {"name": "StatefulPartitionedCall/SmileFaceModel/tf_op_layer_strided_slice_59/strided_slice_59/begin", "shape": [1], "dtype": "int32"}, {"name": "StatefulPartitionedCall/SmileFaceModel/tf_op_layer_strided_slice_59/strided_slice_59/end", "shape": [1], "dtype": "int32"}, {"name": "StatefulPartitionedCall/SmileFaceModel/tf_op_layer_strided_slice_59/strided_slice_59/strides", "shape": [1], "dtype": "int32"}, {"name": "StatefulPartitionedCall/SmileFaceModel/tf_op_layer_Tile_5/multiples/Tile_5/multiples/2", "shape": [], "dtype": "int32"}, {"name": "StatefulPartitionedCall/SmileFaceModel/tf_op_layer_Tile_5/multiples/Tile_5/multiples/3", "shape": [], "dtype": "int32"}, {"name": "StatefulPartitionedCall/SmileFaceModel/tf_op_layer_Reshape_21/Reshape_21/shape", "shape": [2], "dtype": "int32"}, {"name": "StatefulPartitionedCall/SmileFaceModel/tf_op_layer_concat_13/concat_13/axis", "shape": [], "dtype": "int32"}, {"name": "StatefulPartitionedCall/SmileFaceModel/tf_op_layer_concat_14/concat_14/axis", "shape": [], "dtype": "int32"}, {"name": "StatefulPartitionedCall/SmileFaceModel/tf_op_layer_strided_slice_141/strided_slice_141/begin", "shape": [2], "dtype": "int32"}, {"name": "StatefulPartitionedCall/SmileFaceModel/tf_op_layer_strided_slice_141/strided_slice_141/end", "shape": [2], "dtype": "int32"}, {"name": "StatefulPartitionedCall/SmileFaceModel/tf_op_layer_strided_slice_141/strided_slice_141/strides", "shape": [2], "dtype": "int32"}, {"name": "unknown_282", "shape": [1, 1, 64, 8], "dtype": "float32"}, {"name": "unknown_283", "shape": [8], "dtype": "float32"}, {"name": "StatefulPartitionedCall/SmileFaceModel/BboxHead_0/Reshape/shape/0", "shape": [], "dtype": "int32"}, {"name": "StatefulPartitionedCall/SmileFaceModel/BboxHead_0/strided_slice/stack", "shape": [1], "dtype": "int32"}, {"name": "StatefulPartitionedCall/SmileFaceModel/BboxHead_0/strided_slice/stack_1", "shape": [1], "dtype": "int32"}, {"name": "StatefulPartitionedCall/SmileFaceModel/BboxHead_0/strided_slice/stack_2", "shape": [1], "dtype": "int32"}, {"name": "StatefulPartitionedCall/SmileFaceModel/BboxHead_0/mul_1/y", "shape": [], "dtype": "int32"}, {"name": "StatefulPartitionedCall/SmileFaceModel/BboxHead_0/strided_slice_1/stack", "shape": [1], "dtype": "int32"}, {"name": "StatefulPartitionedCall/SmileFaceModel/BboxHead_0/strided_slice_1/stack_1", "shape": [1], "dtype": "int32"}, {"name": "StatefulPartitionedCall/SmileFaceModel/BboxHead_0/strided_slice_1/stack_2", "shape": [1], "dtype": "int32"}, {"name": "StatefulPartitionedCall/SmileFaceModel/BboxHead_0/Reshape/shape/2", "shape": [], "dtype": "int32"}, {"name": "unknown_284", "shape": [1, 1, 64, 8], "dtype": "float32"}, {"name": "unknown_285", "shape": [8], "dtype": "float32"}, {"name": "StatefulPartitionedCall/SmileFaceModel/BboxHead_1/Reshape/shape/0", "shape": [], "dtype": "int32"}, {"name": "StatefulPartitionedCall/SmileFaceModel/BboxHead_1/strided_slice/stack", "shape": [1], "dtype": "int32"}, {"name": "StatefulPartitionedCall/SmileFaceModel/BboxHead_1/strided_slice/stack_1", "shape": [1], "dtype": "int32"}, {"name": "StatefulPartitionedCall/SmileFaceModel/BboxHead_1/strided_slice/stack_2", "shape": [1], "dtype": "int32"}, {"name": "StatefulPartitionedCall/SmileFaceModel/BboxHead_1/mul_1/y", "shape": [], "dtype": "int32"}, {"name": "StatefulPartitionedCall/SmileFaceModel/BboxHead_1/strided_slice_1/stack", "shape": [1], "dtype": "int32"}, {"name": "StatefulPartitionedCall/SmileFaceModel/BboxHead_1/strided_slice_1/stack_1", "shape": [1], "dtype": "int32"}, {"name": "StatefulPartitionedCall/SmileFaceModel/BboxHead_1/strided_slice_1/stack_2", "shape": [1], "dtype": "int32"}, {"name": "StatefulPartitionedCall/SmileFaceModel/BboxHead_1/Reshape/shape/2", "shape": [], "dtype": "int32"}, {"name": "unknown_286", "shape": [1, 1, 64, 8], "dtype": "float32"}, {"name": "unknown_287", "shape": [8], "dtype": "float32"}, {"name": "StatefulPartitionedCall/SmileFaceModel/BboxHead_2/Reshape/shape/0", "shape": [], "dtype": "int32"}, {"name": "StatefulPartitionedCall/SmileFaceModel/BboxHead_2/strided_slice/stack", "shape": [1], "dtype": "int32"}, {"name": "StatefulPartitionedCall/SmileFaceModel/BboxHead_2/strided_slice/stack_1", "shape": [1], "dtype": "int32"}, {"name": "StatefulPartitionedCall/SmileFaceModel/BboxHead_2/strided_slice/stack_2", "shape": [1], "dtype": "int32"}, {"name": "StatefulPartitionedCall/SmileFaceModel/BboxHead_2/mul_1/y", "shape": [], "dtype": "int32"}, {"name": "StatefulPartitionedCall/SmileFaceModel/BboxHead_2/strided_slice_1/stack", "shape": [1], "dtype": "int32"}, {"name": "StatefulPartitionedCall/SmileFaceModel/BboxHead_2/strided_slice_1/stack_1", "shape": [1], "dtype": "int32"}, {"name": "StatefulPartitionedCall/SmileFaceModel/BboxHead_2/strided_slice_1/stack_2", "shape": [1], "dtype": "int32"}, {"name": "StatefulPartitionedCall/SmileFaceModel/BboxHead_2/Reshape/shape/2", "shape": [], "dtype": "int32"}, {"name": "StatefulPartitionedCall/SmileFaceModel/tf_op_layer_concat/concat/axis", "shape": [], "dtype": "int32"}, {"name": "StatefulPartitionedCall/SmileFaceModel/tf_op_layer_strided_slice/strided_slice/begin", "shape": [1], "dtype": "int32"}, {"name": "StatefulPartitionedCall/SmileFaceModel/tf_op_layer_strided_slice/strided_slice/end", "shape": [1], "dtype": "int32"}, {"name": "StatefulPartitionedCall/SmileFaceModel/tf_op_layer_strided_slice/strided_slice/strides", "shape": [1], "dtype": "int32"}, {"name": "unknown_276", "shape": [1, 1, 64, 96], "dtype": "float32"}, {"name": "unknown_277", "shape": [96], "dtype": "float32"}, {"name": "StatefulPartitionedCall/SmileFaceModel/LandmarkHead_0/Reshape/shape/0", "shape": [], "dtype": "int32"}, {"name": "StatefulPartitionedCall/SmileFaceModel/LandmarkHead_0/strided_slice/stack", "shape": [1], "dtype": "int32"}, {"name": "StatefulPartitionedCall/SmileFaceModel/LandmarkHead_0/strided_slice/stack_1", "shape": [1], "dtype": "int32"}, {"name": "StatefulPartitionedCall/SmileFaceModel/LandmarkHead_0/strided_slice/stack_2", "shape": [1], "dtype": "int32"}, {"name": "StatefulPartitionedCall/SmileFaceModel/LandmarkHead_0/mul_1/y", "shape": [], "dtype": "int32"}, {"name": "StatefulPartitionedCall/SmileFaceModel/LandmarkHead_0/strided_slice_1/stack", "shape": [1], "dtype": "int32"}, {"name": "StatefulPartitionedCall/SmileFaceModel/LandmarkHead_0/strided_slice_1/stack_1", "shape": [1], "dtype": "int32"}, {"name": "StatefulPartitionedCall/SmileFaceModel/LandmarkHead_0/strided_slice_1/stack_2", "shape": [1], "dtype": "int32"}, {"name": "StatefulPartitionedCall/SmileFaceModel/LandmarkHead_0/Reshape/shape/2", "shape": [], "dtype": "int32"}, {"name": "unknown_278", "shape": [1, 1, 64, 96], "dtype": "float32"}, {"name": "unknown_279", "shape": [96], "dtype": "float32"}, {"name": "StatefulPartitionedCall/SmileFaceModel/LandmarkHead_1/Reshape/shape/0", "shape": [], "dtype": "int32"}, {"name": "StatefulPartitionedCall/SmileFaceModel/LandmarkHead_1/strided_slice/stack", "shape": [1], "dtype": "int32"}, {"name": "StatefulPartitionedCall/SmileFaceModel/LandmarkHead_1/strided_slice/stack_1", "shape": [1], "dtype": "int32"}, {"name": "StatefulPartitionedCall/SmileFaceModel/LandmarkHead_1/strided_slice/stack_2", "shape": [1], "dtype": "int32"}, {"name": "StatefulPartitionedCall/SmileFaceModel/LandmarkHead_1/mul_1/y", "shape": [], "dtype": "int32"}, {"name": "StatefulPartitionedCall/SmileFaceModel/LandmarkHead_1/strided_slice_1/stack", "shape": [1], "dtype": "int32"}, {"name": "StatefulPartitionedCall/SmileFaceModel/LandmarkHead_1/strided_slice_1/stack_1", "shape": [1], "dtype": "int32"}, {"name": "StatefulPartitionedCall/SmileFaceModel/LandmarkHead_1/strided_slice_1/stack_2", "shape": [1], "dtype": "int32"}, {"name": "StatefulPartitionedCall/SmileFaceModel/LandmarkHead_1/Reshape/shape/2", "shape": [], "dtype": "int32"}, {"name": "unknown_280", "shape": [1, 1, 64, 96], "dtype": "float32"}, {"name": "unknown_281", "shape": [96], "dtype": "float32"}, {"name": "StatefulPartitionedCall/SmileFaceModel/LandmarkHead_2/Reshape/shape/0", "shape": [], "dtype": "int32"}, {"name": "StatefulPartitionedCall/SmileFaceModel/LandmarkHead_2/strided_slice/stack", "shape": [1], "dtype": "int32"}, {"name": "StatefulPartitionedCall/SmileFaceModel/LandmarkHead_2/strided_slice/stack_1", "shape": [1], "dtype": "int32"}, {"name": "StatefulPartitionedCall/SmileFaceModel/LandmarkHead_2/strided_slice/stack_2", "shape": [1], "dtype": "int32"}, {"name": "StatefulPartitionedCall/SmileFaceModel/LandmarkHead_2/mul_1/y", "shape": [], "dtype": "int32"}, {"name": "StatefulPartitionedCall/SmileFaceModel/LandmarkHead_2/strided_slice_1/stack", "shape": [1], "dtype": "int32"}, {"name": "StatefulPartitionedCall/SmileFaceModel/LandmarkHead_2/strided_slice_1/stack_1", "shape": [1], "dtype": "int32"}, {"name": "StatefulPartitionedCall/SmileFaceModel/LandmarkHead_2/strided_slice_1/stack_2", "shape": [1], "dtype": "int32"}, {"name": "StatefulPartitionedCall/SmileFaceModel/LandmarkHead_2/Reshape/shape/2", "shape": [], "dtype": "int32"}, {"name": "StatefulPartitionedCall/SmileFaceModel/tf_op_layer_concat_1/concat_1/axis", "shape": [], "dtype": "int32"}, {"name": "StatefulPartitionedCall/SmileFaceModel/tf_op_layer_strided_slice_1/strided_slice_1/begin", "shape": [1], "dtype": "int32"}, {"name": "StatefulPartitionedCall/SmileFaceModel/tf_op_layer_strided_slice_1/strided_slice_1/end", "shape": [1], "dtype": "int32"}, {"name": "StatefulPartitionedCall/SmileFaceModel/tf_op_layer_strided_slice_1/strided_slice_1/strides", "shape": [1], "dtype": "int32"}, {"name": "unknown_264", "shape": [1, 1, 64, 4], "dtype": "float32"}, {"name": "unknown_265", "shape": [4], "dtype": "float32"}, {"name": "StatefulPartitionedCall/SmileFaceModel/SmileHead_0/Reshape/shape/0", "shape": [], "dtype": "int32"}, {"name": "StatefulPartitionedCall/SmileFaceModel/SmileHead_0/strided_slice/stack", "shape": [1], "dtype": "int32"}, {"name": "StatefulPartitionedCall/SmileFaceModel/SmileHead_0/strided_slice/stack_1", "shape": [1], "dtype": "int32"}, {"name": "StatefulPartitionedCall/SmileFaceModel/SmileHead_0/strided_slice/stack_2", "shape": [1], "dtype": "int32"}, {"name": "StatefulPartitionedCall/SmileFaceModel/SmileHead_0/mul_1/y", "shape": [], "dtype": "int32"}, {"name": "StatefulPartitionedCall/SmileFaceModel/SmileHead_0/strided_slice_1/stack", "shape": [1], "dtype": "int32"}, {"name": "StatefulPartitionedCall/SmileFaceModel/SmileHead_0/strided_slice_1/stack_1", "shape": [1], "dtype": "int32"}, {"name": "StatefulPartitionedCall/SmileFaceModel/SmileHead_0/strided_slice_1/stack_2", "shape": [1], "dtype": "int32"}, {"name": "StatefulPartitionedCall/SmileFaceModel/SmileHead_0/Reshape/shape/2", "shape": [], "dtype": "int32"}, {"name": "unknown_266", "shape": [1, 1, 64, 4], "dtype": "float32"}, {"name": "unknown_267", "shape": [4], "dtype": "float32"}, {"name": "StatefulPartitionedCall/SmileFaceModel/SmileHead_1/Reshape/shape/0", "shape": [], "dtype": "int32"}, {"name": "StatefulPartitionedCall/SmileFaceModel/SmileHead_1/strided_slice/stack", "shape": [1], "dtype": "int32"}, {"name": "StatefulPartitionedCall/SmileFaceModel/SmileHead_1/strided_slice/stack_1", "shape": [1], "dtype": "int32"}, {"name": "StatefulPartitionedCall/SmileFaceModel/SmileHead_1/strided_slice/stack_2", "shape": [1], "dtype": "int32"}, {"name": "StatefulPartitionedCall/SmileFaceModel/SmileHead_1/mul_1/y", "shape": [], "dtype": "int32"}, {"name": "StatefulPartitionedCall/SmileFaceModel/SmileHead_1/strided_slice_1/stack", "shape": [1], "dtype": "int32"}, {"name": "StatefulPartitionedCall/SmileFaceModel/SmileHead_1/strided_slice_1/stack_1", "shape": [1], "dtype": "int32"}, {"name": "StatefulPartitionedCall/SmileFaceModel/SmileHead_1/strided_slice_1/stack_2", "shape": [1], "dtype": "int32"}, {"name": "StatefulPartitionedCall/SmileFaceModel/SmileHead_1/Reshape/shape/2", "shape": [], "dtype": "int32"}, {"name": "unknown_268", "shape": [1, 1, 64, 4], "dtype": "float32"}, {"name": "unknown_269", "shape": [4], "dtype": "float32"}, {"name": "StatefulPartitionedCall/SmileFaceModel/SmileHead_2/Reshape/shape/0", "shape": [], "dtype": "int32"}, {"name": "StatefulPartitionedCall/SmileFaceModel/SmileHead_2/strided_slice/stack", "shape": [1], "dtype": "int32"}, {"name": "StatefulPartitionedCall/SmileFaceModel/SmileHead_2/strided_slice/stack_1", "shape": [1], "dtype": "int32"}, {"name": "StatefulPartitionedCall/SmileFaceModel/SmileHead_2/strided_slice/stack_2", "shape": [1], "dtype": "int32"}, {"name": "StatefulPartitionedCall/SmileFaceModel/SmileHead_2/mul_1/y", "shape": [], "dtype": "int32"}, {"name": "StatefulPartitionedCall/SmileFaceModel/SmileHead_2/strided_slice_1/stack", "shape": [1], "dtype": "int32"}, {"name": "StatefulPartitionedCall/SmileFaceModel/SmileHead_2/strided_slice_1/stack_1", "shape": [1], "dtype": "int32"}, {"name": "StatefulPartitionedCall/SmileFaceModel/SmileHead_2/strided_slice_1/stack_2", "shape": [1], "dtype": "int32"}, {"name": "StatefulPartitionedCall/SmileFaceModel/SmileHead_2/Reshape/shape/2", "shape": [], "dtype": "int32"}, {"name": "StatefulPartitionedCall/SmileFaceModel/tf_op_layer_concat_3/concat_3/axis", "shape": [], "dtype": "int32"}, {"name": "StatefulPartitionedCall/SmileFaceModel/tf_op_layer_strided_slice_2/strided_slice_2/begin", "shape": [3], "dtype": "int32"}, {"name": "StatefulPartitionedCall/SmileFaceModel/tf_op_layer_strided_slice_2/strided_slice_2/end", "shape": [3], "dtype": "int32"}, {"name": "StatefulPartitionedCall/SmileFaceModel/tf_op_layer_strided_slice_2/strided_slice_2/strides", "shape": [3], "dtype": "int32"}, {"name": "StatefulPartitionedCall/SmileFaceModel/tf_op_layer_ExpandDims/ExpandDims/dim", "shape": [], "dtype": "int32"}, {"name": "unknown_270", "shape": [1, 1, 64, 6], "dtype": "float32"}, {"name": "unknown_271", "shape": [6], "dtype": "float32"}, {"name": "StatefulPartitionedCall/SmileFaceModel/ClassHead_0/Reshape/shape/0", "shape": [], "dtype": "int32"}, {"name": "StatefulPartitionedCall/SmileFaceModel/ClassHead_0/strided_slice/stack", "shape": [1], "dtype": "int32"}, {"name": "StatefulPartitionedCall/SmileFaceModel/ClassHead_0/strided_slice/stack_1", "shape": [1], "dtype": "int32"}, {"name": "StatefulPartitionedCall/SmileFaceModel/ClassHead_0/strided_slice/stack_2", "shape": [1], "dtype": "int32"}, {"name": "StatefulPartitionedCall/SmileFaceModel/ClassHead_0/mul_1/y", "shape": [], "dtype": "int32"}, {"name": "StatefulPartitionedCall/SmileFaceModel/FPN/strided_slice_2/stack", "shape": [1], "dtype": "int32"}, {"name": "StatefulPartitionedCall/SmileFaceModel/FPN/strided_slice_2/stack_1", "shape": [1], "dtype": "int32"}, {"name": "StatefulPartitionedCall/SmileFaceModel/FPN/strided_slice_2/stack_2", "shape": [1], "dtype": "int32"}, {"name": "StatefulPartitionedCall/SmileFaceModel/FPN/strided_slice_3/stack", "shape": [1], "dtype": "int32"}, {"name": "StatefulPartitionedCall/SmileFaceModel/FPN/strided_slice_3/stack_1", "shape": [1], "dtype": "int32"}, {"name": "StatefulPartitionedCall/SmileFaceModel/FPN/strided_slice_3/stack_2", "shape": [1], "dtype": "int32"}, {"name": "StatefulPartitionedCall/SmileFaceModel/ClassHead_0/strided_slice_1/stack", "shape": [1], "dtype": "int32"}, {"name": "StatefulPartitionedCall/SmileFaceModel/ClassHead_0/strided_slice_1/stack_1", "shape": [1], "dtype": "int32"}, {"name": "StatefulPartitionedCall/SmileFaceModel/ClassHead_0/strided_slice_1/stack_2", "shape": [1], "dtype": "int32"}, {"name": "StatefulPartitionedCall/SmileFaceModel/ClassHead_0/Reshape/shape/2", "shape": [], "dtype": "int32"}, {"name": "unknown_272", "shape": [1, 1, 64, 6], "dtype": "float32"}, {"name": "unknown_273", "shape": [6], "dtype": "float32"}, {"name": "StatefulPartitionedCall/SmileFaceModel/ClassHead_1/Reshape/shape/0", "shape": [], "dtype": "int32"}, {"name": "StatefulPartitionedCall/SmileFaceModel/ClassHead_1/strided_slice/stack", "shape": [1], "dtype": "int32"}, {"name": "StatefulPartitionedCall/SmileFaceModel/ClassHead_1/strided_slice/stack_1", "shape": [1], "dtype": "int32"}, {"name": "StatefulPartitionedCall/SmileFaceModel/ClassHead_1/strided_slice/stack_2", "shape": [1], "dtype": "int32"}, {"name": "StatefulPartitionedCall/SmileFaceModel/ClassHead_1/mul_1/y", "shape": [], "dtype": "int32"}, {"name": "StatefulPartitionedCall/SmileFaceModel/FPN/strided_slice/stack", "shape": [1], "dtype": "int32"}, {"name": "StatefulPartitionedCall/SmileFaceModel/FPN/strided_slice/stack_1", "shape": [1], "dtype": "int32"}, {"name": "StatefulPartitionedCall/SmileFaceModel/FPN/strided_slice/stack_2", "shape": [1], "dtype": "int32"}, {"name": "StatefulPartitionedCall/SmileFaceModel/FPN/strided_slice_1/stack", "shape": [1], "dtype": "int32"}, {"name": "StatefulPartitionedCall/SmileFaceModel/FPN/strided_slice_1/stack_1", "shape": [1], "dtype": "int32"}, {"name": "StatefulPartitionedCall/SmileFaceModel/FPN/strided_slice_1/stack_2", "shape": [1], "dtype": "int32"}, {"name": "StatefulPartitionedCall/SmileFaceModel/ClassHead_1/strided_slice_1/stack", "shape": [1], "dtype": "int32"}, {"name": "StatefulPartitionedCall/SmileFaceModel/ClassHead_1/strided_slice_1/stack_1", "shape": [1], "dtype": "int32"}, {"name": "StatefulPartitionedCall/SmileFaceModel/ClassHead_1/strided_slice_1/stack_2", "shape": [1], "dtype": "int32"}, {"name": "StatefulPartitionedCall/SmileFaceModel/ClassHead_1/Reshape/shape/2", "shape": [], "dtype": "int32"}, {"name": "unknown_274", "shape": [1, 1, 64, 6], "dtype": "float32"}, {"name": "unknown_275", "shape": [6], "dtype": "float32"}, {"name": "StatefulPartitionedCall/SmileFaceModel/ClassHead_2/Reshape/shape/0", "shape": [], "dtype": "int32"}, {"name": "StatefulPartitionedCall/SmileFaceModel/ClassHead_2/strided_slice/stack", "shape": [1], "dtype": "int32"}, {"name": "StatefulPartitionedCall/SmileFaceModel/ClassHead_2/strided_slice/stack_1", "shape": [1], "dtype": "int32"}, {"name": "StatefulPartitionedCall/SmileFaceModel/ClassHead_2/strided_slice/stack_2", "shape": [1], "dtype": "int32"}, {"name": "StatefulPartitionedCall/SmileFaceModel/ClassHead_2/mul_1/y", "shape": [], "dtype": "int32"}, {"name": "ConstantFolding/StatefulPartitionedCall/SmileFaceModel/tf_op_layer_RealDiv/RealDiv_recip", "shape": [], "dtype": "float32"}, {"name": "StatefulPartitionedCall/SmileFaceModel/tf_op_layer_Sub/Sub/y", "shape": [], "dtype": "float32"}, {"name": "StatefulPartitionedCall/SmileFaceModel/MobileNetV2_extrator/Conv1_pad/Pad/paddings", "shape": [4, 2], "dtype": "int32"}, {"name": "StatefulPartitionedCall/SmileFaceModel/MobileNetV2_extrator/block_1_pad/Pad/paddings", "shape": [4, 2], "dtype": "int32"}, {"name": "StatefulPartitionedCall/SmileFaceModel/MobileNetV2_extrator/block_3_pad/Pad/paddings", "shape": [4, 2], "dtype": "int32"}, {"name": "StatefulPartitionedCall/SmileFaceModel/MobileNetV2_extrator/block_6_pad/Pad/paddings", "shape": [4, 2], "dtype": "int32"}, {"name": "StatefulPartitionedCall/SmileFaceModel/MobileNetV2_extrator/block_13_pad/Pad/paddings", "shape": [4, 2], "dtype": "int32"}, {"name": "StatefulPartitionedCall/SmileFaceModel/ClassHead_2/strided_slice_1/stack", "shape": [1], "dtype": "int32"}, {"name": "StatefulPartitionedCall/SmileFaceModel/ClassHead_2/strided_slice_1/stack_1", "shape": [1], "dtype": "int32"}, {"name": "StatefulPartitionedCall/SmileFaceModel/ClassHead_2/strided_slice_1/stack_2", "shape": [1], "dtype": "int32"}, {"name": "StatefulPartitionedCall/SmileFaceModel/ClassHead_2/Reshape/shape/2", "shape": [], "dtype": "int32"}, {"name": "StatefulPartitionedCall/SmileFaceModel/tf_op_layer_concat_2/concat_2/axis", "shape": [], "dtype": "int32"}, {"name": "StatefulPartitionedCall/SmileFaceModel/tf_op_layer_strided_slice_3/strided_slice_3/begin", "shape": [1], "dtype": "int32"}, {"name": "StatefulPartitionedCall/SmileFaceModel/tf_op_layer_strided_slice_3/strided_slice_3/end", "shape": [1], "dtype": "int32"}, {"name": "StatefulPartitionedCall/SmileFaceModel/tf_op_layer_strided_slice_3/strided_slice_3/strides", "shape": [1], "dtype": "int32"}, {"name": "StatefulPartitionedCall/SmileFaceModel/tf_op_layer_concat_4/concat_4/axis", "shape": [], "dtype": "int32"}, {"name": "StatefulPartitionedCall/SmileFaceModel/tf_op_layer_strided_slice_142/strided_slice_142/begin", "shape": [2], "dtype": "int32"}, {"name": "StatefulPartitionedCall/SmileFaceModel/tf_op_layer_strided_slice_142/strided_slice_142/end", "shape": [2], "dtype": "int32"}, {"name": "StatefulPartitionedCall/SmileFaceModel/tf_op_layer_strided_slice_142/strided_slice_142/strides", "shape": [2], "dtype": "int32"}, {"name": "StatefulPartitionedCall/SmileFaceModel/tf_op_layer_concat_17/concat_17/axis", "shape": [], "dtype": "int32"}, {"name": "StatefulPartitionedCall/SmileFaceModel/tf_op_layer_strided_slice_146/strided_slice_146/begin", "shape": [2], "dtype": "int32"}, {"name": "StatefulPartitionedCall/SmileFaceModel/tf_op_layer_strided_slice_146/strided_slice_146/end", "shape": [2], "dtype": "int32"}, {"name": "StatefulPartitionedCall/SmileFaceModel/tf_op_layer_strided_slice_146/strided_slice_146/strides", "shape": [2], "dtype": "int32"}, {"name": "StatefulPartitionedCall/SmileFaceModel/tf_op_layer_NonMaxSuppressionV5_1/NonMaxSuppressionV5_1/max_output_size", "shape": [], "dtype": "int32"}, {"name": "StatefulPartitionedCall/SmileFaceModel/tf_op_layer_NonMaxSuppressionV5_1/NonMaxSuppressionV5_1/iou_threshold", "shape": [], "dtype": "float32"}, {"name": "StatefulPartitionedCall/SmileFaceModel/tf_op_layer_NonMaxSuppressionV5_1/NonMaxSuppressionV5_1/score_threshold", "shape": [], "dtype": "float32"}, {"name": "StatefulPartitionedCall/SmileFaceModel/tf_op_layer_NonMaxSuppressionV5_1/NonMaxSuppressionV5_1/soft_nms_sigma", "shape": [], "dtype": "float32"}, {"name": "StatefulPartitionedCall/SmileFaceModel/tf_op_layer_concat_18/concat_18/axis", "shape": [], "dtype": "int32"}, {"name": "StatefulPartitionedCall/SmileFaceModel/tf_op_layer_outputs/outputs/axis", "shape": [], "dtype": "int32"}, {"name": "StatefulPartitionedCall/SmileFaceModel/MobileNetV2_extrator/Conv1/Conv2D_weights", "shape": [3, 3, 3, 16], "dtype": "float32"}, {"name": "StatefulPartitionedCall/SmileFaceModel/MobileNetV2_extrator/Conv1/Conv2D_bn_offset", "shape": [16], "dtype": "float32"}, {"name": "StatefulPartitionedCall/SmileFaceModel/MobileNetV2_extrator/expanded_conv_depthwise/depthwise_weights", "shape": [3, 3, 16, 1], "dtype": "float32"}, {"name": "StatefulPartitionedCall/SmileFaceModel/MobileNetV2_extrator/expanded_conv_depthwise/depthwise_bn_offset", "shape": [16], "dtype": "float32"}, {"name": "StatefulPartitionedCall/SmileFaceModel/MobileNetV2_extrator/expanded_conv_project/Conv2D_weights", "shape": [1, 1, 16, 8], "dtype": "float32"}, {"name": "StatefulPartitionedCall/SmileFaceModel/MobileNetV2_extrator/expanded_conv_project/Conv2D_bn_offset", "shape": [8], "dtype": "float32"}, {"name": "StatefulPartitionedCall/SmileFaceModel/MobileNetV2_extrator/block_1_expand/Conv2D_weights", "shape": [1, 1, 8, 48], "dtype": "float32"}, {"name": "StatefulPartitionedCall/SmileFaceModel/MobileNetV2_extrator/block_1_expand/Conv2D_bn_offset", "shape": [48], "dtype": "float32"}, {"name": "StatefulPartitionedCall/SmileFaceModel/MobileNetV2_extrator/block_1_depthwise/depthwise_weights", "shape": [3, 3, 48, 1], "dtype": "float32"}, {"name": "StatefulPartitionedCall/SmileFaceModel/MobileNetV2_extrator/block_1_depthwise/depthwise_bn_offset", "shape": [48], "dtype": "float32"}, {"name": "StatefulPartitionedCall/SmileFaceModel/MobileNetV2_extrator/block_1_project/Conv2D_weights", "shape": [1, 1, 48, 8], "dtype": "float32"}, {"name": "StatefulPartitionedCall/SmileFaceModel/MobileNetV2_extrator/block_1_project/Conv2D_bn_offset", "shape": [8], "dtype": "float32"}, {"name": "StatefulPartitionedCall/SmileFaceModel/MobileNetV2_extrator/block_2_expand/Conv2D_weights", "shape": [1, 1, 8, 48], "dtype": "float32"}, {"name": "StatefulPartitionedCall/SmileFaceModel/MobileNetV2_extrator/block_2_expand/Conv2D_bn_offset", "shape": [48], "dtype": "float32"}, {"name": "StatefulPartitionedCall/SmileFaceModel/MobileNetV2_extrator/block_2_depthwise/depthwise_weights", "shape": [3, 3, 48, 1], "dtype": "float32"}, {"name": "StatefulPartitionedCall/SmileFaceModel/MobileNetV2_extrator/block_2_depthwise/depthwise_bn_offset", "shape": [48], "dtype": "float32"}, {"name": "StatefulPartitionedCall/SmileFaceModel/MobileNetV2_extrator/block_2_project/Conv2D_weights", "shape": [1, 1, 48, 8], "dtype": "float32"}, {"name": "StatefulPartitionedCall/SmileFaceModel/MobileNetV2_extrator/block_2_project/Conv2D_bn_offset", "shape": [8], "dtype": "float32"}, {"name": "StatefulPartitionedCall/SmileFaceModel/MobileNetV2_extrator/block_3_expand/Conv2D_weights", "shape": [1, 1, 8, 48], "dtype": "float32"}, {"name": "StatefulPartitionedCall/SmileFaceModel/MobileNetV2_extrator/block_3_expand/Conv2D_bn_offset", "shape": [48], "dtype": "float32"}, {"name": "StatefulPartitionedCall/SmileFaceModel/MobileNetV2_extrator/block_3_depthwise/depthwise_weights", "shape": [3, 3, 48, 1], "dtype": "float32"}, {"name": "StatefulPartitionedCall/SmileFaceModel/MobileNetV2_extrator/block_3_depthwise/depthwise_bn_offset", "shape": [48], "dtype": "float32"}, {"name": "StatefulPartitionedCall/SmileFaceModel/MobileNetV2_extrator/block_3_project/Conv2D_weights", "shape": [1, 1, 48, 16], "dtype": "float32"}, {"name": "StatefulPartitionedCall/SmileFaceModel/MobileNetV2_extrator/block_3_project/Conv2D_bn_offset", "shape": [16], "dtype": "float32"}, {"name": "StatefulPartitionedCall/SmileFaceModel/MobileNetV2_extrator/block_4_expand/Conv2D_weights", "shape": [1, 1, 16, 96], "dtype": "float32"}, {"name": "StatefulPartitionedCall/SmileFaceModel/MobileNetV2_extrator/block_4_expand/Conv2D_bn_offset", "shape": [96], "dtype": "float32"}, {"name": "StatefulPartitionedCall/SmileFaceModel/MobileNetV2_extrator/block_4_depthwise/depthwise_weights", "shape": [3, 3, 96, 1], "dtype": "float32"}, {"name": "StatefulPartitionedCall/SmileFaceModel/MobileNetV2_extrator/block_4_depthwise/depthwise_bn_offset", "shape": [96], "dtype": "float32"}, {"name": "StatefulPartitionedCall/SmileFaceModel/MobileNetV2_extrator/block_4_project/Conv2D_weights", "shape": [1, 1, 96, 16], "dtype": "float32"}, {"name": "StatefulPartitionedCall/SmileFaceModel/MobileNetV2_extrator/block_4_project/Conv2D_bn_offset", "shape": [16], "dtype": "float32"}, {"name": "StatefulPartitionedCall/SmileFaceModel/MobileNetV2_extrator/block_5_expand/Conv2D_weights", "shape": [1, 1, 16, 96], "dtype": "float32"}, {"name": "StatefulPartitionedCall/SmileFaceModel/MobileNetV2_extrator/block_5_expand/Conv2D_bn_offset", "shape": [96], "dtype": "float32"}, {"name": "StatefulPartitionedCall/SmileFaceModel/MobileNetV2_extrator/block_5_depthwise/depthwise_weights", "shape": [3, 3, 96, 1], "dtype": "float32"}, {"name": "StatefulPartitionedCall/SmileFaceModel/MobileNetV2_extrator/block_5_depthwise/depthwise_bn_offset", "shape": [96], "dtype": "float32"}, {"name": "StatefulPartitionedCall/SmileFaceModel/MobileNetV2_extrator/block_5_project/Conv2D_weights", "shape": [1, 1, 96, 16], "dtype": "float32"}, {"name": "StatefulPartitionedCall/SmileFaceModel/MobileNetV2_extrator/block_5_project/Conv2D_bn_offset", "shape": [16], "dtype": "float32"}, {"name": "StatefulPartitionedCall/SmileFaceModel/FPN/ConvBN/conv/Conv2D_weights", "shape": [1, 1, 16, 64], "dtype": "float32"}, {"name": "StatefulPartitionedCall/SmileFaceModel/FPN/ConvBN/conv/Conv2D_bn_offset", "shape": [64], "dtype": "float32"}, {"name": "StatefulPartitionedCall/SmileFaceModel/MobileNetV2_extrator/block_6_expand/Conv2D_weights", "shape": [1, 1, 16, 96], "dtype": "float32"}, {"name": "StatefulPartitionedCall/SmileFaceModel/MobileNetV2_extrator/block_6_expand/Conv2D_bn_offset", "shape": [96], "dtype": "float32"}, {"name": "StatefulPartitionedCall/SmileFaceModel/MobileNetV2_extrator/block_6_depthwise/depthwise_weights", "shape": [3, 3, 96, 1], "dtype": "float32"}, {"name": "StatefulPartitionedCall/SmileFaceModel/MobileNetV2_extrator/block_6_depthwise/depthwise_bn_offset", "shape": [96], "dtype": "float32"}, {"name": "StatefulPartitionedCall/SmileFaceModel/MobileNetV2_extrator/block_6_project/Conv2D_weights", "shape": [1, 1, 96, 24], "dtype": "float32"}, {"name": "StatefulPartitionedCall/SmileFaceModel/MobileNetV2_extrator/block_6_project/Conv2D_bn_offset", "shape": [24], "dtype": "float32"}, {"name": "StatefulPartitionedCall/SmileFaceModel/MobileNetV2_extrator/block_7_expand/Conv2D_weights", "shape": [1, 1, 24, 144], "dtype": "float32"}, {"name": "StatefulPartitionedCall/SmileFaceModel/MobileNetV2_extrator/block_7_expand/Conv2D_bn_offset", "shape": [144], "dtype": "float32"}, {"name": "StatefulPartitionedCall/SmileFaceModel/MobileNetV2_extrator/block_7_depthwise/depthwise_weights", "shape": [3, 3, 144, 1], "dtype": "float32"}, {"name": "StatefulPartitionedCall/SmileFaceModel/MobileNetV2_extrator/block_7_depthwise/depthwise_bn_offset", "shape": [144], "dtype": "float32"}, {"name": "StatefulPartitionedCall/SmileFaceModel/MobileNetV2_extrator/block_7_project/Conv2D_weights", "shape": [1, 1, 144, 24], "dtype": "float32"}, {"name": "StatefulPartitionedCall/SmileFaceModel/MobileNetV2_extrator/block_7_project/Conv2D_bn_offset", "shape": [24], "dtype": "float32"}, {"name": "StatefulPartitionedCall/SmileFaceModel/MobileNetV2_extrator/block_8_expand/Conv2D_weights", "shape": [1, 1, 24, 144], "dtype": "float32"}, {"name": "StatefulPartitionedCall/SmileFaceModel/MobileNetV2_extrator/block_8_expand/Conv2D_bn_offset", "shape": [144], "dtype": "float32"}, {"name": "StatefulPartitionedCall/SmileFaceModel/MobileNetV2_extrator/block_8_depthwise/depthwise_weights", "shape": [3, 3, 144, 1], "dtype": "float32"}, {"name": "StatefulPartitionedCall/SmileFaceModel/MobileNetV2_extrator/block_8_depthwise/depthwise_bn_offset", "shape": [144], "dtype": "float32"}, {"name": "StatefulPartitionedCall/SmileFaceModel/MobileNetV2_extrator/block_8_project/Conv2D_weights", "shape": [1, 1, 144, 24], "dtype": "float32"}, {"name": "StatefulPartitionedCall/SmileFaceModel/MobileNetV2_extrator/block_8_project/Conv2D_bn_offset", "shape": [24], "dtype": "float32"}, {"name": "StatefulPartitionedCall/SmileFaceModel/MobileNetV2_extrator/block_9_expand/Conv2D_weights", "shape": [1, 1, 24, 144], "dtype": "float32"}, {"name": "StatefulPartitionedCall/SmileFaceModel/MobileNetV2_extrator/block_9_expand/Conv2D_bn_offset", "shape": [144], "dtype": "float32"}, {"name": "StatefulPartitionedCall/SmileFaceModel/MobileNetV2_extrator/block_9_depthwise/depthwise_weights", "shape": [3, 3, 144, 1], "dtype": "float32"}, {"name": "StatefulPartitionedCall/SmileFaceModel/MobileNetV2_extrator/block_9_depthwise/depthwise_bn_offset", "shape": [144], "dtype": "float32"}, {"name": "StatefulPartitionedCall/SmileFaceModel/MobileNetV2_extrator/block_9_project/Conv2D_weights", "shape": [1, 1, 144, 24], "dtype": "float32"}, {"name": "StatefulPartitionedCall/SmileFaceModel/MobileNetV2_extrator/block_9_project/Conv2D_bn_offset", "shape": [24], "dtype": "float32"}, {"name": "StatefulPartitionedCall/SmileFaceModel/MobileNetV2_extrator/block_10_expand/Conv2D_weights", "shape": [1, 1, 24, 144], "dtype": "float32"}, {"name": "StatefulPartitionedCall/SmileFaceModel/MobileNetV2_extrator/block_10_expand/Conv2D_bn_offset", "shape": [144], "dtype": "float32"}, {"name": "StatefulPartitionedCall/SmileFaceModel/MobileNetV2_extrator/block_10_depthwise/depthwise_weights", "shape": [3, 3, 144, 1], "dtype": "float32"}, {"name": "StatefulPartitionedCall/SmileFaceModel/MobileNetV2_extrator/block_10_depthwise/depthwise_bn_offset", "shape": [144], "dtype": "float32"}, {"name": "StatefulPartitionedCall/SmileFaceModel/MobileNetV2_extrator/block_10_project/Conv2D_weights", "shape": [1, 1, 144, 32], "dtype": "float32"}, {"name": "StatefulPartitionedCall/SmileFaceModel/MobileNetV2_extrator/block_10_project/Conv2D_bn_offset", "shape": [32], "dtype": "float32"}, {"name": "StatefulPartitionedCall/SmileFaceModel/MobileNetV2_extrator/block_11_expand/Conv2D_weights", "shape": [1, 1, 32, 192], "dtype": "float32"}, {"name": "StatefulPartitionedCall/SmileFaceModel/MobileNetV2_extrator/block_11_expand/Conv2D_bn_offset", "shape": [192], "dtype": "float32"}, {"name": "StatefulPartitionedCall/SmileFaceModel/MobileNetV2_extrator/block_11_depthwise/depthwise_weights", "shape": [3, 3, 192, 1], "dtype": "float32"}, {"name": "StatefulPartitionedCall/SmileFaceModel/MobileNetV2_extrator/block_11_depthwise/depthwise_bn_offset", "shape": [192], "dtype": "float32"}, {"name": "StatefulPartitionedCall/SmileFaceModel/MobileNetV2_extrator/block_11_project/Conv2D_weights", "shape": [1, 1, 192, 32], "dtype": "float32"}, {"name": "StatefulPartitionedCall/SmileFaceModel/MobileNetV2_extrator/block_11_project/Conv2D_bn_offset", "shape": [32], "dtype": "float32"}, {"name": "StatefulPartitionedCall/SmileFaceModel/MobileNetV2_extrator/block_12_expand/Conv2D_weights", "shape": [1, 1, 32, 192], "dtype": "float32"}, {"name": "StatefulPartitionedCall/SmileFaceModel/MobileNetV2_extrator/block_12_expand/Conv2D_bn_offset", "shape": [192], "dtype": "float32"}, {"name": "StatefulPartitionedCall/SmileFaceModel/MobileNetV2_extrator/block_12_depthwise/depthwise_weights", "shape": [3, 3, 192, 1], "dtype": "float32"}, {"name": "StatefulPartitionedCall/SmileFaceModel/MobileNetV2_extrator/block_12_depthwise/depthwise_bn_offset", "shape": [192], "dtype": "float32"}, {"name": "StatefulPartitionedCall/SmileFaceModel/MobileNetV2_extrator/block_12_project/Conv2D_weights", "shape": [1, 1, 192, 32], "dtype": "float32"}, {"name": "StatefulPartitionedCall/SmileFaceModel/MobileNetV2_extrator/block_12_project/Conv2D_bn_offset", "shape": [32], "dtype": "float32"}, {"name": "StatefulPartitionedCall/SmileFaceModel/FPN/ConvBN/conv/Conv2D_1_weights", "shape": [1, 1, 32, 64], "dtype": "float32"}, {"name": "StatefulPartitionedCall/SmileFaceModel/FPN/ConvBN/conv/Conv2D_1_bn_offset", "shape": [64], "dtype": "float32"}, {"name": "StatefulPartitionedCall/SmileFaceModel/MobileNetV2_extrator/block_13_expand/Conv2D_weights", "shape": [1, 1, 32, 192], "dtype": "float32"}, {"name": "StatefulPartitionedCall/SmileFaceModel/MobileNetV2_extrator/block_13_expand/Conv2D_bn_offset", "shape": [192], "dtype": "float32"}, {"name": "StatefulPartitionedCall/SmileFaceModel/MobileNetV2_extrator/block_13_depthwise/depthwise_weights", "shape": [3, 3, 192, 1], "dtype": "float32"}, {"name": "StatefulPartitionedCall/SmileFaceModel/MobileNetV2_extrator/block_13_depthwise/depthwise_bn_offset", "shape": [192], "dtype": "float32"}, {"name": "StatefulPartitionedCall/SmileFaceModel/MobileNetV2_extrator/block_13_project/Conv2D_weights", "shape": [1, 1, 192, 56], "dtype": "float32"}, {"name": "StatefulPartitionedCall/SmileFaceModel/MobileNetV2_extrator/block_13_project/Conv2D_bn_offset", "shape": [56], "dtype": "float32"}, {"name": "StatefulPartitionedCall/SmileFaceModel/MobileNetV2_extrator/block_14_expand/Conv2D_weights", "shape": [1, 1, 56, 336], "dtype": "float32"}, {"name": "StatefulPartitionedCall/SmileFaceModel/MobileNetV2_extrator/block_14_expand/Conv2D_bn_offset", "shape": [336], "dtype": "float32"}, {"name": "StatefulPartitionedCall/SmileFaceModel/MobileNetV2_extrator/block_14_depthwise/depthwise_weights", "shape": [3, 3, 336, 1], "dtype": "float32"}, {"name": "StatefulPartitionedCall/SmileFaceModel/MobileNetV2_extrator/block_14_depthwise/depthwise_bn_offset", "shape": [336], "dtype": "float32"}, {"name": "StatefulPartitionedCall/SmileFaceModel/MobileNetV2_extrator/block_14_project/Conv2D_weights", "shape": [1, 1, 336, 56], "dtype": "float32"}, {"name": "StatefulPartitionedCall/SmileFaceModel/MobileNetV2_extrator/block_14_project/Conv2D_bn_offset", "shape": [56], "dtype": "float32"}, {"name": "StatefulPartitionedCall/SmileFaceModel/MobileNetV2_extrator/block_15_expand/Conv2D_weights", "shape": [1, 1, 56, 336], "dtype": "float32"}, {"name": "StatefulPartitionedCall/SmileFaceModel/MobileNetV2_extrator/block_15_expand/Conv2D_bn_offset", "shape": [336], "dtype": "float32"}, {"name": "StatefulPartitionedCall/SmileFaceModel/MobileNetV2_extrator/block_15_depthwise/depthwise_weights", "shape": [3, 3, 336, 1], "dtype": "float32"}, {"name": "StatefulPartitionedCall/SmileFaceModel/MobileNetV2_extrator/block_15_depthwise/depthwise_bn_offset", "shape": [336], "dtype": "float32"}, {"name": "StatefulPartitionedCall/SmileFaceModel/MobileNetV2_extrator/block_15_project/Conv2D_weights", "shape": [1, 1, 336, 56], "dtype": "float32"}, {"name": "StatefulPartitionedCall/SmileFaceModel/MobileNetV2_extrator/block_15_project/Conv2D_bn_offset", "shape": [56], "dtype": "float32"}, {"name": "StatefulPartitionedCall/SmileFaceModel/FPN/ConvBN/conv/Conv2D_2_weights", "shape": [1, 1, 56, 64], "dtype": "float32"}, {"name": "StatefulPartitionedCall/SmileFaceModel/FPN/ConvBN/conv/Conv2D_2_bn_offset", "shape": [64], "dtype": "float32"}, {"name": "StatefulPartitionedCall/SmileFaceModel/FPN/ConvBN/conv/Conv2D_3_weights", "shape": [3, 3, 64, 64], "dtype": "float32"}, {"name": "StatefulPartitionedCall/SmileFaceModel/FPN/ConvBN/conv/Conv2D_3_bn_offset", "shape": [64], "dtype": "float32"}, {"name": "StatefulPartitionedCall/SmileFaceModel/FPN/ConvBN/conv/Conv2D_4_weights", "shape": [3, 3, 64, 64], "dtype": "float32"}, {"name": "StatefulPartitionedCall/SmileFaceModel/FPN/ConvBN/conv/Conv2D_4_bn_offset", "shape": [64], "dtype": "float32"}, {"name": "ConstantFolding/StatefulPartitionedCall/SmileFaceModel/tf_op_layer_concat_5/values_1/concat_5/values_1_const_axis", "shape": [], "dtype": "int32"}, {"name": "ConstantFolding/StatefulPartitionedCall/SmileFaceModel/tf_op_layer_concat_8/values_1/concat_8/values_1_const_axis", "shape": [], "dtype": "int32"}, {"name": "ConstantFolding/StatefulPartitionedCall/SmileFaceModel/tf_op_layer_concat_11/values_1/concat_11/values_1_const_axis", "shape": [], "dtype": "int32"}]}]}